<bound method Network.arch_parameters of Network(
  (_criterion): CrossEntropyLoss()
  (stem): Sequential(
    (0): Conv2d(1, 48, kernel_size=(3, 3), stride=(1, 1), padding=(1, 1), bias=False)
    (1): BatchNorm2d(48, eps=1e-05, momentum=0.1, affine=True, track_running_stats=True)
  )
  (cells): ModuleList(
    (0): Cell(
      (preprocess0): ReLUConvBN(
        (op): Sequential(
          (0): ReLU()
          (1): Conv2d(48, 16, kernel_size=(1, 1), stride=(1, 1), bias=False)
          (2): BatchNorm2d(16, eps=1e-05, momentum=0.1, affine=False, track_running_stats=True)
        )
      )
      (preprocess1): ReLUConvBN(
        (op): Sequential(
          (0): ReLU()
          (1): Conv2d(48, 16, kernel_size=(1, 1), stride=(1, 1), bias=False)
          (2): BatchNorm2d(16, eps=1e-05, momentum=0.1, affine=False, track_running_stats=True)
        )
      )
      (_ops): ModuleList(
        (0): MixedOp(
          (_ops): ModuleList(
            (0): Sequential(
              (0): MaxPool2d(kernel_size=3, stride=1, padding=1, dilation=1, ceil_mode=False)
              (1): BatchNorm2d(16, eps=1e-05, momentum=0.1, affine=False, track_running_stats=True)
            )
            (1): Sequential(
              (0): AvgPool2d(kernel_size=3, stride=1, padding=1)
              (1): BatchNorm2d(16, eps=1e-05, momentum=0.1, affine=False, track_running_stats=True)
            )
            (2): Identity()
            (3): SepConv(
              (op): Sequential(
                (0): ReLU()
                (1): Conv2d(16, 16, kernel_size=(3, 3), stride=(1, 1), padding=(1, 1), groups=16, bias=False)
                (2): Conv2d(16, 16, kernel_size=(1, 1), stride=(1, 1), bias=False)
                (3): BatchNorm2d(16, eps=1e-05, momentum=0.1, affine=False, track_running_stats=True)
                (4): ReLU()
                (5): Conv2d(16, 16, kernel_size=(3, 3), stride=(1, 1), padding=(1, 1), groups=16, bias=False)
                (6): Conv2d(16, 16, kernel_size=(1, 1), stride=(1, 1), bias=False)
                (7): BatchNorm2d(16, eps=1e-05, momentum=0.1, affine=False, track_running_stats=True)
              )
            )
            (4): SepConv(
              (op): Sequential(
                (0): ReLU()
                (1): Conv2d(16, 16, kernel_size=(5, 5), stride=(1, 1), padding=(2, 2), groups=16, bias=False)
                (2): Conv2d(16, 16, kernel_size=(1, 1), stride=(1, 1), bias=False)
                (3): BatchNorm2d(16, eps=1e-05, momentum=0.1, affine=False, track_running_stats=True)
                (4): ReLU()
                (5): Conv2d(16, 16, kernel_size=(5, 5), stride=(1, 1), padding=(2, 2), groups=16, bias=False)
                (6): Conv2d(16, 16, kernel_size=(1, 1), stride=(1, 1), bias=False)
                (7): BatchNorm2d(16, eps=1e-05, momentum=0.1, affine=False, track_running_stats=True)
              )
            )
          )
        )
        (1): MixedOp(
          (_ops): ModuleList(
            (0): Sequential(
              (0): MaxPool2d(kernel_size=3, stride=1, padding=1, dilation=1, ceil_mode=False)
              (1): BatchNorm2d(16, eps=1e-05, momentum=0.1, affine=False, track_running_stats=True)
            )
            (1): Sequential(
              (0): AvgPool2d(kernel_size=3, stride=1, padding=1)
              (1): BatchNorm2d(16, eps=1e-05, momentum=0.1, affine=False, track_running_stats=True)
            )
            (2): Identity()
            (3): SepConv(
              (op): Sequential(
                (0): ReLU()
                (1): Conv2d(16, 16, kernel_size=(3, 3), stride=(1, 1), padding=(1, 1), groups=16, bias=False)
                (2): Conv2d(16, 16, kernel_size=(1, 1), stride=(1, 1), bias=False)
                (3): BatchNorm2d(16, eps=1e-05, momentum=0.1, affine=False, track_running_stats=True)
                (4): ReLU()
                (5): Conv2d(16, 16, kernel_size=(3, 3), stride=(1, 1), padding=(1, 1), groups=16, bias=False)
                (6): Conv2d(16, 16, kernel_size=(1, 1), stride=(1, 1), bias=False)
                (7): BatchNorm2d(16, eps=1e-05, momentum=0.1, affine=False, track_running_stats=True)
              )
            )
            (4): SepConv(
              (op): Sequential(
                (0): ReLU()
                (1): Conv2d(16, 16, kernel_size=(5, 5), stride=(1, 1), padding=(2, 2), groups=16, bias=False)
                (2): Conv2d(16, 16, kernel_size=(1, 1), stride=(1, 1), bias=False)
                (3): BatchNorm2d(16, eps=1e-05, momentum=0.1, affine=False, track_running_stats=True)
                (4): ReLU()
                (5): Conv2d(16, 16, kernel_size=(5, 5), stride=(1, 1), padding=(2, 2), groups=16, bias=False)
                (6): Conv2d(16, 16, kernel_size=(1, 1), stride=(1, 1), bias=False)
                (7): BatchNorm2d(16, eps=1e-05, momentum=0.1, affine=False, track_running_stats=True)
              )
            )
          )
        )
        (2): MixedOp(
          (_ops): ModuleList(
            (0): Sequential(
              (0): MaxPool2d(kernel_size=3, stride=1, padding=1, dilation=1, ceil_mode=False)
              (1): BatchNorm2d(16, eps=1e-05, momentum=0.1, affine=False, track_running_stats=True)
            )
            (1): Sequential(
              (0): AvgPool2d(kernel_size=3, stride=1, padding=1)
              (1): BatchNorm2d(16, eps=1e-05, momentum=0.1, affine=False, track_running_stats=True)
            )
            (2): Identity()
            (3): SepConv(
              (op): Sequential(
                (0): ReLU()
                (1): Conv2d(16, 16, kernel_size=(3, 3), stride=(1, 1), padding=(1, 1), groups=16, bias=False)
                (2): Conv2d(16, 16, kernel_size=(1, 1), stride=(1, 1), bias=False)
                (3): BatchNorm2d(16, eps=1e-05, momentum=0.1, affine=False, track_running_stats=True)
                (4): ReLU()
                (5): Conv2d(16, 16, kernel_size=(3, 3), stride=(1, 1), padding=(1, 1), groups=16, bias=False)
                (6): Conv2d(16, 16, kernel_size=(1, 1), stride=(1, 1), bias=False)
                (7): BatchNorm2d(16, eps=1e-05, momentum=0.1, affine=False, track_running_stats=True)
              )
            )
            (4): SepConv(
              (op): Sequential(
                (0): ReLU()
                (1): Conv2d(16, 16, kernel_size=(5, 5), stride=(1, 1), padding=(2, 2), groups=16, bias=False)
                (2): Conv2d(16, 16, kernel_size=(1, 1), stride=(1, 1), bias=False)
                (3): BatchNorm2d(16, eps=1e-05, momentum=0.1, affine=False, track_running_stats=True)
                (4): ReLU()
                (5): Conv2d(16, 16, kernel_size=(5, 5), stride=(1, 1), padding=(2, 2), groups=16, bias=False)
                (6): Conv2d(16, 16, kernel_size=(1, 1), stride=(1, 1), bias=False)
                (7): BatchNorm2d(16, eps=1e-05, momentum=0.1, affine=False, track_running_stats=True)
              )
            )
          )
        )
        (3): MixedOp(
          (_ops): ModuleList(
            (0): Sequential(
              (0): MaxPool2d(kernel_size=3, stride=1, padding=1, dilation=1, ceil_mode=False)
              (1): BatchNorm2d(16, eps=1e-05, momentum=0.1, affine=False, track_running_stats=True)
            )
            (1): Sequential(
              (0): AvgPool2d(kernel_size=3, stride=1, padding=1)
              (1): BatchNorm2d(16, eps=1e-05, momentum=0.1, affine=False, track_running_stats=True)
            )
            (2): Identity()
            (3): SepConv(
              (op): Sequential(
                (0): ReLU()
                (1): Conv2d(16, 16, kernel_size=(3, 3), stride=(1, 1), padding=(1, 1), groups=16, bias=False)
                (2): Conv2d(16, 16, kernel_size=(1, 1), stride=(1, 1), bias=False)
                (3): BatchNorm2d(16, eps=1e-05, momentum=0.1, affine=False, track_running_stats=True)
                (4): ReLU()
                (5): Conv2d(16, 16, kernel_size=(3, 3), stride=(1, 1), padding=(1, 1), groups=16, bias=False)
                (6): Conv2d(16, 16, kernel_size=(1, 1), stride=(1, 1), bias=False)
                (7): BatchNorm2d(16, eps=1e-05, momentum=0.1, affine=False, track_running_stats=True)
              )
            )
            (4): SepConv(
              (op): Sequential(
                (0): ReLU()
                (1): Conv2d(16, 16, kernel_size=(5, 5), stride=(1, 1), padding=(2, 2), groups=16, bias=False)
                (2): Conv2d(16, 16, kernel_size=(1, 1), stride=(1, 1), bias=False)
                (3): BatchNorm2d(16, eps=1e-05, momentum=0.1, affine=False, track_running_stats=True)
                (4): ReLU()
                (5): Conv2d(16, 16, kernel_size=(5, 5), stride=(1, 1), padding=(2, 2), groups=16, bias=False)
                (6): Conv2d(16, 16, kernel_size=(1, 1), stride=(1, 1), bias=False)
                (7): BatchNorm2d(16, eps=1e-05, momentum=0.1, affine=False, track_running_stats=True)
              )
            )
          )
        )
        (4): MixedOp(
          (_ops): ModuleList(
            (0): Sequential(
              (0): MaxPool2d(kernel_size=3, stride=1, padding=1, dilation=1, ceil_mode=False)
              (1): BatchNorm2d(16, eps=1e-05, momentum=0.1, affine=False, track_running_stats=True)
            )
            (1): Sequential(
              (0): AvgPool2d(kernel_size=3, stride=1, padding=1)
              (1): BatchNorm2d(16, eps=1e-05, momentum=0.1, affine=False, track_running_stats=True)
            )
            (2): Identity()
            (3): SepConv(
              (op): Sequential(
                (0): ReLU()
                (1): Conv2d(16, 16, kernel_size=(3, 3), stride=(1, 1), padding=(1, 1), groups=16, bias=False)
                (2): Conv2d(16, 16, kernel_size=(1, 1), stride=(1, 1), bias=False)
                (3): BatchNorm2d(16, eps=1e-05, momentum=0.1, affine=False, track_running_stats=True)
                (4): ReLU()
                (5): Conv2d(16, 16, kernel_size=(3, 3), stride=(1, 1), padding=(1, 1), groups=16, bias=False)
                (6): Conv2d(16, 16, kernel_size=(1, 1), stride=(1, 1), bias=False)
                (7): BatchNorm2d(16, eps=1e-05, momentum=0.1, affine=False, track_running_stats=True)
              )
            )
            (4): SepConv(
              (op): Sequential(
                (0): ReLU()
                (1): Conv2d(16, 16, kernel_size=(5, 5), stride=(1, 1), padding=(2, 2), groups=16, bias=False)
                (2): Conv2d(16, 16, kernel_size=(1, 1), stride=(1, 1), bias=False)
                (3): BatchNorm2d(16, eps=1e-05, momentum=0.1, affine=False, track_running_stats=True)
                (4): ReLU()
                (5): Conv2d(16, 16, kernel_size=(5, 5), stride=(1, 1), padding=(2, 2), groups=16, bias=False)
                (6): Conv2d(16, 16, kernel_size=(1, 1), stride=(1, 1), bias=False)
                (7): BatchNorm2d(16, eps=1e-05, momentum=0.1, affine=False, track_running_stats=True)
              )
            )
          )
        )
        (5): MixedOp(
          (_ops): ModuleList(
            (0): Sequential(
              (0): MaxPool2d(kernel_size=3, stride=1, padding=1, dilation=1, ceil_mode=False)
              (1): BatchNorm2d(16, eps=1e-05, momentum=0.1, affine=False, track_running_stats=True)
            )
            (1): Sequential(
              (0): AvgPool2d(kernel_size=3, stride=1, padding=1)
              (1): BatchNorm2d(16, eps=1e-05, momentum=0.1, affine=False, track_running_stats=True)
            )
            (2): Identity()
            (3): SepConv(
              (op): Sequential(
                (0): ReLU()
                (1): Conv2d(16, 16, kernel_size=(3, 3), stride=(1, 1), padding=(1, 1), groups=16, bias=False)
                (2): Conv2d(16, 16, kernel_size=(1, 1), stride=(1, 1), bias=False)
                (3): BatchNorm2d(16, eps=1e-05, momentum=0.1, affine=False, track_running_stats=True)
                (4): ReLU()
                (5): Conv2d(16, 16, kernel_size=(3, 3), stride=(1, 1), padding=(1, 1), groups=16, bias=False)
                (6): Conv2d(16, 16, kernel_size=(1, 1), stride=(1, 1), bias=False)
                (7): BatchNorm2d(16, eps=1e-05, momentum=0.1, affine=False, track_running_stats=True)
              )
            )
            (4): SepConv(
              (op): Sequential(
                (0): ReLU()
                (1): Conv2d(16, 16, kernel_size=(5, 5), stride=(1, 1), padding=(2, 2), groups=16, bias=False)
                (2): Conv2d(16, 16, kernel_size=(1, 1), stride=(1, 1), bias=False)
                (3): BatchNorm2d(16, eps=1e-05, momentum=0.1, affine=False, track_running_stats=True)
                (4): ReLU()
                (5): Conv2d(16, 16, kernel_size=(5, 5), stride=(1, 1), padding=(2, 2), groups=16, bias=False)
                (6): Conv2d(16, 16, kernel_size=(1, 1), stride=(1, 1), bias=False)
                (7): BatchNorm2d(16, eps=1e-05, momentum=0.1, affine=False, track_running_stats=True)
              )
            )
          )
        )
        (6): MixedOp(
          (_ops): ModuleList(
            (0): Sequential(
              (0): MaxPool2d(kernel_size=3, stride=1, padding=1, dilation=1, ceil_mode=False)
              (1): BatchNorm2d(16, eps=1e-05, momentum=0.1, affine=False, track_running_stats=True)
            )
            (1): Sequential(
              (0): AvgPool2d(kernel_size=3, stride=1, padding=1)
              (1): BatchNorm2d(16, eps=1e-05, momentum=0.1, affine=False, track_running_stats=True)
            )
            (2): Identity()
            (3): SepConv(
              (op): Sequential(
                (0): ReLU()
                (1): Conv2d(16, 16, kernel_size=(3, 3), stride=(1, 1), padding=(1, 1), groups=16, bias=False)
                (2): Conv2d(16, 16, kernel_size=(1, 1), stride=(1, 1), bias=False)
                (3): BatchNorm2d(16, eps=1e-05, momentum=0.1, affine=False, track_running_stats=True)
                (4): ReLU()
                (5): Conv2d(16, 16, kernel_size=(3, 3), stride=(1, 1), padding=(1, 1), groups=16, bias=False)
                (6): Conv2d(16, 16, kernel_size=(1, 1), stride=(1, 1), bias=False)
                (7): BatchNorm2d(16, eps=1e-05, momentum=0.1, affine=False, track_running_stats=True)
              )
            )
            (4): SepConv(
              (op): Sequential(
                (0): ReLU()
                (1): Conv2d(16, 16, kernel_size=(5, 5), stride=(1, 1), padding=(2, 2), groups=16, bias=False)
                (2): Conv2d(16, 16, kernel_size=(1, 1), stride=(1, 1), bias=False)
                (3): BatchNorm2d(16, eps=1e-05, momentum=0.1, affine=False, track_running_stats=True)
                (4): ReLU()
                (5): Conv2d(16, 16, kernel_size=(5, 5), stride=(1, 1), padding=(2, 2), groups=16, bias=False)
                (6): Conv2d(16, 16, kernel_size=(1, 1), stride=(1, 1), bias=False)
                (7): BatchNorm2d(16, eps=1e-05, momentum=0.1, affine=False, track_running_stats=True)
              )
            )
          )
        )
        (7): MixedOp(
          (_ops): ModuleList(
            (0): Sequential(
              (0): MaxPool2d(kernel_size=3, stride=1, padding=1, dilation=1, ceil_mode=False)
              (1): BatchNorm2d(16, eps=1e-05, momentum=0.1, affine=False, track_running_stats=True)
            )
            (1): Sequential(
              (0): AvgPool2d(kernel_size=3, stride=1, padding=1)
              (1): BatchNorm2d(16, eps=1e-05, momentum=0.1, affine=False, track_running_stats=True)
            )
            (2): Identity()
            (3): SepConv(
              (op): Sequential(
                (0): ReLU()
                (1): Conv2d(16, 16, kernel_size=(3, 3), stride=(1, 1), padding=(1, 1), groups=16, bias=False)
                (2): Conv2d(16, 16, kernel_size=(1, 1), stride=(1, 1), bias=False)
                (3): BatchNorm2d(16, eps=1e-05, momentum=0.1, affine=False, track_running_stats=True)
                (4): ReLU()
                (5): Conv2d(16, 16, kernel_size=(3, 3), stride=(1, 1), padding=(1, 1), groups=16, bias=False)
                (6): Conv2d(16, 16, kernel_size=(1, 1), stride=(1, 1), bias=False)
                (7): BatchNorm2d(16, eps=1e-05, momentum=0.1, affine=False, track_running_stats=True)
              )
            )
            (4): SepConv(
              (op): Sequential(
                (0): ReLU()
                (1): Conv2d(16, 16, kernel_size=(5, 5), stride=(1, 1), padding=(2, 2), groups=16, bias=False)
                (2): Conv2d(16, 16, kernel_size=(1, 1), stride=(1, 1), bias=False)
                (3): BatchNorm2d(16, eps=1e-05, momentum=0.1, affine=False, track_running_stats=True)
                (4): ReLU()
                (5): Conv2d(16, 16, kernel_size=(5, 5), stride=(1, 1), padding=(2, 2), groups=16, bias=False)
                (6): Conv2d(16, 16, kernel_size=(1, 1), stride=(1, 1), bias=False)
                (7): BatchNorm2d(16, eps=1e-05, momentum=0.1, affine=False, track_running_stats=True)
              )
            )
          )
        )
        (8): MixedOp(
          (_ops): ModuleList(
            (0): Sequential(
              (0): MaxPool2d(kernel_size=3, stride=1, padding=1, dilation=1, ceil_mode=False)
              (1): BatchNorm2d(16, eps=1e-05, momentum=0.1, affine=False, track_running_stats=True)
            )
            (1): Sequential(
              (0): AvgPool2d(kernel_size=3, stride=1, padding=1)
              (1): BatchNorm2d(16, eps=1e-05, momentum=0.1, affine=False, track_running_stats=True)
            )
            (2): Identity()
            (3): SepConv(
              (op): Sequential(
                (0): ReLU()
                (1): Conv2d(16, 16, kernel_size=(3, 3), stride=(1, 1), padding=(1, 1), groups=16, bias=False)
                (2): Conv2d(16, 16, kernel_size=(1, 1), stride=(1, 1), bias=False)
                (3): BatchNorm2d(16, eps=1e-05, momentum=0.1, affine=False, track_running_stats=True)
                (4): ReLU()
                (5): Conv2d(16, 16, kernel_size=(3, 3), stride=(1, 1), padding=(1, 1), groups=16, bias=False)
                (6): Conv2d(16, 16, kernel_size=(1, 1), stride=(1, 1), bias=False)
                (7): BatchNorm2d(16, eps=1e-05, momentum=0.1, affine=False, track_running_stats=True)
              )
            )
            (4): SepConv(
              (op): Sequential(
                (0): ReLU()
                (1): Conv2d(16, 16, kernel_size=(5, 5), stride=(1, 1), padding=(2, 2), groups=16, bias=False)
                (2): Conv2d(16, 16, kernel_size=(1, 1), stride=(1, 1), bias=False)
                (3): BatchNorm2d(16, eps=1e-05, momentum=0.1, affine=False, track_running_stats=True)
                (4): ReLU()
                (5): Conv2d(16, 16, kernel_size=(5, 5), stride=(1, 1), padding=(2, 2), groups=16, bias=False)
                (6): Conv2d(16, 16, kernel_size=(1, 1), stride=(1, 1), bias=False)
                (7): BatchNorm2d(16, eps=1e-05, momentum=0.1, affine=False, track_running_stats=True)
              )
            )
          )
        )
        (9): MixedOp(
          (_ops): ModuleList(
            (0): Sequential(
              (0): MaxPool2d(kernel_size=3, stride=1, padding=1, dilation=1, ceil_mode=False)
              (1): BatchNorm2d(16, eps=1e-05, momentum=0.1, affine=False, track_running_stats=True)
            )
            (1): Sequential(
              (0): AvgPool2d(kernel_size=3, stride=1, padding=1)
              (1): BatchNorm2d(16, eps=1e-05, momentum=0.1, affine=False, track_running_stats=True)
            )
            (2): Identity()
            (3): SepConv(
              (op): Sequential(
                (0): ReLU()
                (1): Conv2d(16, 16, kernel_size=(3, 3), stride=(1, 1), padding=(1, 1), groups=16, bias=False)
                (2): Conv2d(16, 16, kernel_size=(1, 1), stride=(1, 1), bias=False)
                (3): BatchNorm2d(16, eps=1e-05, momentum=0.1, affine=False, track_running_stats=True)
                (4): ReLU()
                (5): Conv2d(16, 16, kernel_size=(3, 3), stride=(1, 1), padding=(1, 1), groups=16, bias=False)
                (6): Conv2d(16, 16, kernel_size=(1, 1), stride=(1, 1), bias=False)
                (7): BatchNorm2d(16, eps=1e-05, momentum=0.1, affine=False, track_running_stats=True)
              )
            )
            (4): SepConv(
              (op): Sequential(
                (0): ReLU()
                (1): Conv2d(16, 16, kernel_size=(5, 5), stride=(1, 1), padding=(2, 2), groups=16, bias=False)
                (2): Conv2d(16, 16, kernel_size=(1, 1), stride=(1, 1), bias=False)
                (3): BatchNorm2d(16, eps=1e-05, momentum=0.1, affine=False, track_running_stats=True)
                (4): ReLU()
                (5): Conv2d(16, 16, kernel_size=(5, 5), stride=(1, 1), padding=(2, 2), groups=16, bias=False)
                (6): Conv2d(16, 16, kernel_size=(1, 1), stride=(1, 1), bias=False)
                (7): BatchNorm2d(16, eps=1e-05, momentum=0.1, affine=False, track_running_stats=True)
              )
            )
          )
        )
        (10): MixedOp(
          (_ops): ModuleList(
            (0): Sequential(
              (0): MaxPool2d(kernel_size=3, stride=1, padding=1, dilation=1, ceil_mode=False)
              (1): BatchNorm2d(16, eps=1e-05, momentum=0.1, affine=False, track_running_stats=True)
            )
            (1): Sequential(
              (0): AvgPool2d(kernel_size=3, stride=1, padding=1)
              (1): BatchNorm2d(16, eps=1e-05, momentum=0.1, affine=False, track_running_stats=True)
            )
            (2): Identity()
            (3): SepConv(
              (op): Sequential(
                (0): ReLU()
                (1): Conv2d(16, 16, kernel_size=(3, 3), stride=(1, 1), padding=(1, 1), groups=16, bias=False)
                (2): Conv2d(16, 16, kernel_size=(1, 1), stride=(1, 1), bias=False)
                (3): BatchNorm2d(16, eps=1e-05, momentum=0.1, affine=False, track_running_stats=True)
                (4): ReLU()
                (5): Conv2d(16, 16, kernel_size=(3, 3), stride=(1, 1), padding=(1, 1), groups=16, bias=False)
                (6): Conv2d(16, 16, kernel_size=(1, 1), stride=(1, 1), bias=False)
                (7): BatchNorm2d(16, eps=1e-05, momentum=0.1, affine=False, track_running_stats=True)
              )
            )
            (4): SepConv(
              (op): Sequential(
                (0): ReLU()
                (1): Conv2d(16, 16, kernel_size=(5, 5), stride=(1, 1), padding=(2, 2), groups=16, bias=False)
                (2): Conv2d(16, 16, kernel_size=(1, 1), stride=(1, 1), bias=False)
                (3): BatchNorm2d(16, eps=1e-05, momentum=0.1, affine=False, track_running_stats=True)
                (4): ReLU()
                (5): Conv2d(16, 16, kernel_size=(5, 5), stride=(1, 1), padding=(2, 2), groups=16, bias=False)
                (6): Conv2d(16, 16, kernel_size=(1, 1), stride=(1, 1), bias=False)
                (7): BatchNorm2d(16, eps=1e-05, momentum=0.1, affine=False, track_running_stats=True)
              )
            )
          )
        )
        (11): MixedOp(
          (_ops): ModuleList(
            (0): Sequential(
              (0): MaxPool2d(kernel_size=3, stride=1, padding=1, dilation=1, ceil_mode=False)
              (1): BatchNorm2d(16, eps=1e-05, momentum=0.1, affine=False, track_running_stats=True)
            )
            (1): Sequential(
              (0): AvgPool2d(kernel_size=3, stride=1, padding=1)
              (1): BatchNorm2d(16, eps=1e-05, momentum=0.1, affine=False, track_running_stats=True)
            )
            (2): Identity()
            (3): SepConv(
              (op): Sequential(
                (0): ReLU()
                (1): Conv2d(16, 16, kernel_size=(3, 3), stride=(1, 1), padding=(1, 1), groups=16, bias=False)
                (2): Conv2d(16, 16, kernel_size=(1, 1), stride=(1, 1), bias=False)
                (3): BatchNorm2d(16, eps=1e-05, momentum=0.1, affine=False, track_running_stats=True)
                (4): ReLU()
                (5): Conv2d(16, 16, kernel_size=(3, 3), stride=(1, 1), padding=(1, 1), groups=16, bias=False)
                (6): Conv2d(16, 16, kernel_size=(1, 1), stride=(1, 1), bias=False)
                (7): BatchNorm2d(16, eps=1e-05, momentum=0.1, affine=False, track_running_stats=True)
              )
            )
            (4): SepConv(
              (op): Sequential(
                (0): ReLU()
                (1): Conv2d(16, 16, kernel_size=(5, 5), stride=(1, 1), padding=(2, 2), groups=16, bias=False)
                (2): Conv2d(16, 16, kernel_size=(1, 1), stride=(1, 1), bias=False)
                (3): BatchNorm2d(16, eps=1e-05, momentum=0.1, affine=False, track_running_stats=True)
                (4): ReLU()
                (5): Conv2d(16, 16, kernel_size=(5, 5), stride=(1, 1), padding=(2, 2), groups=16, bias=False)
                (6): Conv2d(16, 16, kernel_size=(1, 1), stride=(1, 1), bias=False)
                (7): BatchNorm2d(16, eps=1e-05, momentum=0.1, affine=False, track_running_stats=True)
              )
            )
          )
        )
        (12): MixedOp(
          (_ops): ModuleList(
            (0): Sequential(
              (0): MaxPool2d(kernel_size=3, stride=1, padding=1, dilation=1, ceil_mode=False)
              (1): BatchNorm2d(16, eps=1e-05, momentum=0.1, affine=False, track_running_stats=True)
            )
            (1): Sequential(
              (0): AvgPool2d(kernel_size=3, stride=1, padding=1)
              (1): BatchNorm2d(16, eps=1e-05, momentum=0.1, affine=False, track_running_stats=True)
            )
            (2): Identity()
            (3): SepConv(
              (op): Sequential(
                (0): ReLU()
                (1): Conv2d(16, 16, kernel_size=(3, 3), stride=(1, 1), padding=(1, 1), groups=16, bias=False)
                (2): Conv2d(16, 16, kernel_size=(1, 1), stride=(1, 1), bias=False)
                (3): BatchNorm2d(16, eps=1e-05, momentum=0.1, affine=False, track_running_stats=True)
                (4): ReLU()
                (5): Conv2d(16, 16, kernel_size=(3, 3), stride=(1, 1), padding=(1, 1), groups=16, bias=False)
                (6): Conv2d(16, 16, kernel_size=(1, 1), stride=(1, 1), bias=False)
                (7): BatchNorm2d(16, eps=1e-05, momentum=0.1, affine=False, track_running_stats=True)
              )
            )
            (4): SepConv(
              (op): Sequential(
                (0): ReLU()
                (1): Conv2d(16, 16, kernel_size=(5, 5), stride=(1, 1), padding=(2, 2), groups=16, bias=False)
                (2): Conv2d(16, 16, kernel_size=(1, 1), stride=(1, 1), bias=False)
                (3): BatchNorm2d(16, eps=1e-05, momentum=0.1, affine=False, track_running_stats=True)
                (4): ReLU()
                (5): Conv2d(16, 16, kernel_size=(5, 5), stride=(1, 1), padding=(2, 2), groups=16, bias=False)
                (6): Conv2d(16, 16, kernel_size=(1, 1), stride=(1, 1), bias=False)
                (7): BatchNorm2d(16, eps=1e-05, momentum=0.1, affine=False, track_running_stats=True)
              )
            )
          )
        )
        (13): MixedOp(
          (_ops): ModuleList(
            (0): Sequential(
              (0): MaxPool2d(kernel_size=3, stride=1, padding=1, dilation=1, ceil_mode=False)
              (1): BatchNorm2d(16, eps=1e-05, momentum=0.1, affine=False, track_running_stats=True)
            )
            (1): Sequential(
              (0): AvgPool2d(kernel_size=3, stride=1, padding=1)
              (1): BatchNorm2d(16, eps=1e-05, momentum=0.1, affine=False, track_running_stats=True)
            )
            (2): Identity()
            (3): SepConv(
              (op): Sequential(
                (0): ReLU()
                (1): Conv2d(16, 16, kernel_size=(3, 3), stride=(1, 1), padding=(1, 1), groups=16, bias=False)
                (2): Conv2d(16, 16, kernel_size=(1, 1), stride=(1, 1), bias=False)
                (3): BatchNorm2d(16, eps=1e-05, momentum=0.1, affine=False, track_running_stats=True)
                (4): ReLU()
                (5): Conv2d(16, 16, kernel_size=(3, 3), stride=(1, 1), padding=(1, 1), groups=16, bias=False)
                (6): Conv2d(16, 16, kernel_size=(1, 1), stride=(1, 1), bias=False)
                (7): BatchNorm2d(16, eps=1e-05, momentum=0.1, affine=False, track_running_stats=True)
              )
            )
            (4): SepConv(
              (op): Sequential(
                (0): ReLU()
                (1): Conv2d(16, 16, kernel_size=(5, 5), stride=(1, 1), padding=(2, 2), groups=16, bias=False)
                (2): Conv2d(16, 16, kernel_size=(1, 1), stride=(1, 1), bias=False)
                (3): BatchNorm2d(16, eps=1e-05, momentum=0.1, affine=False, track_running_stats=True)
                (4): ReLU()
                (5): Conv2d(16, 16, kernel_size=(5, 5), stride=(1, 1), padding=(2, 2), groups=16, bias=False)
                (6): Conv2d(16, 16, kernel_size=(1, 1), stride=(1, 1), bias=False)
                (7): BatchNorm2d(16, eps=1e-05, momentum=0.1, affine=False, track_running_stats=True)
              )
            )
          )
        )
      )
      (_bns): ModuleList()
    )
    (1): Cell(
      (preprocess0): ReLUConvBN(
        (op): Sequential(
          (0): ReLU()
          (1): Conv2d(48, 16, kernel_size=(1, 1), stride=(1, 1), bias=False)
          (2): BatchNorm2d(16, eps=1e-05, momentum=0.1, affine=False, track_running_stats=True)
        )
      )
      (preprocess1): ReLUConvBN(
        (op): Sequential(
          (0): ReLU()
          (1): Conv2d(64, 16, kernel_size=(1, 1), stride=(1, 1), bias=False)
          (2): BatchNorm2d(16, eps=1e-05, momentum=0.1, affine=False, track_running_stats=True)
        )
      )
      (_ops): ModuleList(
        (0): MixedOp(
          (_ops): ModuleList(
            (0): Sequential(
              (0): MaxPool2d(kernel_size=3, stride=1, padding=1, dilation=1, ceil_mode=False)
              (1): BatchNorm2d(16, eps=1e-05, momentum=0.1, affine=False, track_running_stats=True)
            )
            (1): Sequential(
              (0): AvgPool2d(kernel_size=3, stride=1, padding=1)
              (1): BatchNorm2d(16, eps=1e-05, momentum=0.1, affine=False, track_running_stats=True)
            )
            (2): Identity()
            (3): SepConv(
              (op): Sequential(
                (0): ReLU()
                (1): Conv2d(16, 16, kernel_size=(3, 3), stride=(1, 1), padding=(1, 1), groups=16, bias=False)
                (2): Conv2d(16, 16, kernel_size=(1, 1), stride=(1, 1), bias=False)
                (3): BatchNorm2d(16, eps=1e-05, momentum=0.1, affine=False, track_running_stats=True)
                (4): ReLU()
                (5): Conv2d(16, 16, kernel_size=(3, 3), stride=(1, 1), padding=(1, 1), groups=16, bias=False)
                (6): Conv2d(16, 16, kernel_size=(1, 1), stride=(1, 1), bias=False)
                (7): BatchNorm2d(16, eps=1e-05, momentum=0.1, affine=False, track_running_stats=True)
              )
            )
            (4): SepConv(
              (op): Sequential(
                (0): ReLU()
                (1): Conv2d(16, 16, kernel_size=(5, 5), stride=(1, 1), padding=(2, 2), groups=16, bias=False)
                (2): Conv2d(16, 16, kernel_size=(1, 1), stride=(1, 1), bias=False)
                (3): BatchNorm2d(16, eps=1e-05, momentum=0.1, affine=False, track_running_stats=True)
                (4): ReLU()
                (5): Conv2d(16, 16, kernel_size=(5, 5), stride=(1, 1), padding=(2, 2), groups=16, bias=False)
                (6): Conv2d(16, 16, kernel_size=(1, 1), stride=(1, 1), bias=False)
                (7): BatchNorm2d(16, eps=1e-05, momentum=0.1, affine=False, track_running_stats=True)
              )
            )
          )
        )
        (1): MixedOp(
          (_ops): ModuleList(
            (0): Sequential(
              (0): MaxPool2d(kernel_size=3, stride=1, padding=1, dilation=1, ceil_mode=False)
              (1): BatchNorm2d(16, eps=1e-05, momentum=0.1, affine=False, track_running_stats=True)
            )
            (1): Sequential(
              (0): AvgPool2d(kernel_size=3, stride=1, padding=1)
              (1): BatchNorm2d(16, eps=1e-05, momentum=0.1, affine=False, track_running_stats=True)
            )
            (2): Identity()
            (3): SepConv(
              (op): Sequential(
                (0): ReLU()
                (1): Conv2d(16, 16, kernel_size=(3, 3), stride=(1, 1), padding=(1, 1), groups=16, bias=False)
                (2): Conv2d(16, 16, kernel_size=(1, 1), stride=(1, 1), bias=False)
                (3): BatchNorm2d(16, eps=1e-05, momentum=0.1, affine=False, track_running_stats=True)
                (4): ReLU()
                (5): Conv2d(16, 16, kernel_size=(3, 3), stride=(1, 1), padding=(1, 1), groups=16, bias=False)
                (6): Conv2d(16, 16, kernel_size=(1, 1), stride=(1, 1), bias=False)
                (7): BatchNorm2d(16, eps=1e-05, momentum=0.1, affine=False, track_running_stats=True)
              )
            )
            (4): SepConv(
              (op): Sequential(
                (0): ReLU()
                (1): Conv2d(16, 16, kernel_size=(5, 5), stride=(1, 1), padding=(2, 2), groups=16, bias=False)
                (2): Conv2d(16, 16, kernel_size=(1, 1), stride=(1, 1), bias=False)
                (3): BatchNorm2d(16, eps=1e-05, momentum=0.1, affine=False, track_running_stats=True)
                (4): ReLU()
                (5): Conv2d(16, 16, kernel_size=(5, 5), stride=(1, 1), padding=(2, 2), groups=16, bias=False)
                (6): Conv2d(16, 16, kernel_size=(1, 1), stride=(1, 1), bias=False)
                (7): BatchNorm2d(16, eps=1e-05, momentum=0.1, affine=False, track_running_stats=True)
              )
            )
          )
        )
        (2): MixedOp(
          (_ops): ModuleList(
            (0): Sequential(
              (0): MaxPool2d(kernel_size=3, stride=1, padding=1, dilation=1, ceil_mode=False)
              (1): BatchNorm2d(16, eps=1e-05, momentum=0.1, affine=False, track_running_stats=True)
            )
            (1): Sequential(
              (0): AvgPool2d(kernel_size=3, stride=1, padding=1)
              (1): BatchNorm2d(16, eps=1e-05, momentum=0.1, affine=False, track_running_stats=True)
            )
            (2): Identity()
            (3): SepConv(
              (op): Sequential(
                (0): ReLU()
                (1): Conv2d(16, 16, kernel_size=(3, 3), stride=(1, 1), padding=(1, 1), groups=16, bias=False)
                (2): Conv2d(16, 16, kernel_size=(1, 1), stride=(1, 1), bias=False)
                (3): BatchNorm2d(16, eps=1e-05, momentum=0.1, affine=False, track_running_stats=True)
                (4): ReLU()
                (5): Conv2d(16, 16, kernel_size=(3, 3), stride=(1, 1), padding=(1, 1), groups=16, bias=False)
                (6): Conv2d(16, 16, kernel_size=(1, 1), stride=(1, 1), bias=False)
                (7): BatchNorm2d(16, eps=1e-05, momentum=0.1, affine=False, track_running_stats=True)
              )
            )
            (4): SepConv(
              (op): Sequential(
                (0): ReLU()
                (1): Conv2d(16, 16, kernel_size=(5, 5), stride=(1, 1), padding=(2, 2), groups=16, bias=False)
                (2): Conv2d(16, 16, kernel_size=(1, 1), stride=(1, 1), bias=False)
                (3): BatchNorm2d(16, eps=1e-05, momentum=0.1, affine=False, track_running_stats=True)
                (4): ReLU()
                (5): Conv2d(16, 16, kernel_size=(5, 5), stride=(1, 1), padding=(2, 2), groups=16, bias=False)
                (6): Conv2d(16, 16, kernel_size=(1, 1), stride=(1, 1), bias=False)
                (7): BatchNorm2d(16, eps=1e-05, momentum=0.1, affine=False, track_running_stats=True)
              )
            )
          )
        )
        (3): MixedOp(
          (_ops): ModuleList(
            (0): Sequential(
              (0): MaxPool2d(kernel_size=3, stride=1, padding=1, dilation=1, ceil_mode=False)
              (1): BatchNorm2d(16, eps=1e-05, momentum=0.1, affine=False, track_running_stats=True)
            )
            (1): Sequential(
              (0): AvgPool2d(kernel_size=3, stride=1, padding=1)
              (1): BatchNorm2d(16, eps=1e-05, momentum=0.1, affine=False, track_running_stats=True)
            )
            (2): Identity()
            (3): SepConv(
              (op): Sequential(
                (0): ReLU()
                (1): Conv2d(16, 16, kernel_size=(3, 3), stride=(1, 1), padding=(1, 1), groups=16, bias=False)
                (2): Conv2d(16, 16, kernel_size=(1, 1), stride=(1, 1), bias=False)
                (3): BatchNorm2d(16, eps=1e-05, momentum=0.1, affine=False, track_running_stats=True)
                (4): ReLU()
                (5): Conv2d(16, 16, kernel_size=(3, 3), stride=(1, 1), padding=(1, 1), groups=16, bias=False)
                (6): Conv2d(16, 16, kernel_size=(1, 1), stride=(1, 1), bias=False)
                (7): BatchNorm2d(16, eps=1e-05, momentum=0.1, affine=False, track_running_stats=True)
              )
            )
            (4): SepConv(
              (op): Sequential(
                (0): ReLU()
                (1): Conv2d(16, 16, kernel_size=(5, 5), stride=(1, 1), padding=(2, 2), groups=16, bias=False)
                (2): Conv2d(16, 16, kernel_size=(1, 1), stride=(1, 1), bias=False)
                (3): BatchNorm2d(16, eps=1e-05, momentum=0.1, affine=False, track_running_stats=True)
                (4): ReLU()
                (5): Conv2d(16, 16, kernel_size=(5, 5), stride=(1, 1), padding=(2, 2), groups=16, bias=False)
                (6): Conv2d(16, 16, kernel_size=(1, 1), stride=(1, 1), bias=False)
                (7): BatchNorm2d(16, eps=1e-05, momentum=0.1, affine=False, track_running_stats=True)
              )
            )
          )
        )
        (4): MixedOp(
          (_ops): ModuleList(
            (0): Sequential(
              (0): MaxPool2d(kernel_size=3, stride=1, padding=1, dilation=1, ceil_mode=False)
              (1): BatchNorm2d(16, eps=1e-05, momentum=0.1, affine=False, track_running_stats=True)
            )
            (1): Sequential(
              (0): AvgPool2d(kernel_size=3, stride=1, padding=1)
              (1): BatchNorm2d(16, eps=1e-05, momentum=0.1, affine=False, track_running_stats=True)
            )
            (2): Identity()
            (3): SepConv(
              (op): Sequential(
                (0): ReLU()
                (1): Conv2d(16, 16, kernel_size=(3, 3), stride=(1, 1), padding=(1, 1), groups=16, bias=False)
                (2): Conv2d(16, 16, kernel_size=(1, 1), stride=(1, 1), bias=False)
                (3): BatchNorm2d(16, eps=1e-05, momentum=0.1, affine=False, track_running_stats=True)
                (4): ReLU()
                (5): Conv2d(16, 16, kernel_size=(3, 3), stride=(1, 1), padding=(1, 1), groups=16, bias=False)
                (6): Conv2d(16, 16, kernel_size=(1, 1), stride=(1, 1), bias=False)
                (7): BatchNorm2d(16, eps=1e-05, momentum=0.1, affine=False, track_running_stats=True)
              )
            )
            (4): SepConv(
              (op): Sequential(
                (0): ReLU()
                (1): Conv2d(16, 16, kernel_size=(5, 5), stride=(1, 1), padding=(2, 2), groups=16, bias=False)
                (2): Conv2d(16, 16, kernel_size=(1, 1), stride=(1, 1), bias=False)
                (3): BatchNorm2d(16, eps=1e-05, momentum=0.1, affine=False, track_running_stats=True)
                (4): ReLU()
                (5): Conv2d(16, 16, kernel_size=(5, 5), stride=(1, 1), padding=(2, 2), groups=16, bias=False)
                (6): Conv2d(16, 16, kernel_size=(1, 1), stride=(1, 1), bias=False)
                (7): BatchNorm2d(16, eps=1e-05, momentum=0.1, affine=False, track_running_stats=True)
              )
            )
          )
        )
        (5): MixedOp(
          (_ops): ModuleList(
            (0): Sequential(
              (0): MaxPool2d(kernel_size=3, stride=1, padding=1, dilation=1, ceil_mode=False)
              (1): BatchNorm2d(16, eps=1e-05, momentum=0.1, affine=False, track_running_stats=True)
            )
            (1): Sequential(
              (0): AvgPool2d(kernel_size=3, stride=1, padding=1)
              (1): BatchNorm2d(16, eps=1e-05, momentum=0.1, affine=False, track_running_stats=True)
            )
            (2): Identity()
            (3): SepConv(
              (op): Sequential(
                (0): ReLU()
                (1): Conv2d(16, 16, kernel_size=(3, 3), stride=(1, 1), padding=(1, 1), groups=16, bias=False)
                (2): Conv2d(16, 16, kernel_size=(1, 1), stride=(1, 1), bias=False)
                (3): BatchNorm2d(16, eps=1e-05, momentum=0.1, affine=False, track_running_stats=True)
                (4): ReLU()
                (5): Conv2d(16, 16, kernel_size=(3, 3), stride=(1, 1), padding=(1, 1), groups=16, bias=False)
                (6): Conv2d(16, 16, kernel_size=(1, 1), stride=(1, 1), bias=False)
                (7): BatchNorm2d(16, eps=1e-05, momentum=0.1, affine=False, track_running_stats=True)
              )
            )
            (4): SepConv(
              (op): Sequential(
                (0): ReLU()
                (1): Conv2d(16, 16, kernel_size=(5, 5), stride=(1, 1), padding=(2, 2), groups=16, bias=False)
                (2): Conv2d(16, 16, kernel_size=(1, 1), stride=(1, 1), bias=False)
                (3): BatchNorm2d(16, eps=1e-05, momentum=0.1, affine=False, track_running_stats=True)
                (4): ReLU()
                (5): Conv2d(16, 16, kernel_size=(5, 5), stride=(1, 1), padding=(2, 2), groups=16, bias=False)
                (6): Conv2d(16, 16, kernel_size=(1, 1), stride=(1, 1), bias=False)
                (7): BatchNorm2d(16, eps=1e-05, momentum=0.1, affine=False, track_running_stats=True)
              )
            )
          )
        )
        (6): MixedOp(
          (_ops): ModuleList(
            (0): Sequential(
              (0): MaxPool2d(kernel_size=3, stride=1, padding=1, dilation=1, ceil_mode=False)
              (1): BatchNorm2d(16, eps=1e-05, momentum=0.1, affine=False, track_running_stats=True)
            )
            (1): Sequential(
              (0): AvgPool2d(kernel_size=3, stride=1, padding=1)
              (1): BatchNorm2d(16, eps=1e-05, momentum=0.1, affine=False, track_running_stats=True)
            )
            (2): Identity()
            (3): SepConv(
              (op): Sequential(
                (0): ReLU()
                (1): Conv2d(16, 16, kernel_size=(3, 3), stride=(1, 1), padding=(1, 1), groups=16, bias=False)
                (2): Conv2d(16, 16, kernel_size=(1, 1), stride=(1, 1), bias=False)
                (3): BatchNorm2d(16, eps=1e-05, momentum=0.1, affine=False, track_running_stats=True)
                (4): ReLU()
                (5): Conv2d(16, 16, kernel_size=(3, 3), stride=(1, 1), padding=(1, 1), groups=16, bias=False)
                (6): Conv2d(16, 16, kernel_size=(1, 1), stride=(1, 1), bias=False)
                (7): BatchNorm2d(16, eps=1e-05, momentum=0.1, affine=False, track_running_stats=True)
              )
            )
            (4): SepConv(
              (op): Sequential(
                (0): ReLU()
                (1): Conv2d(16, 16, kernel_size=(5, 5), stride=(1, 1), padding=(2, 2), groups=16, bias=False)
                (2): Conv2d(16, 16, kernel_size=(1, 1), stride=(1, 1), bias=False)
                (3): BatchNorm2d(16, eps=1e-05, momentum=0.1, affine=False, track_running_stats=True)
                (4): ReLU()
                (5): Conv2d(16, 16, kernel_size=(5, 5), stride=(1, 1), padding=(2, 2), groups=16, bias=False)
                (6): Conv2d(16, 16, kernel_size=(1, 1), stride=(1, 1), bias=False)
                (7): BatchNorm2d(16, eps=1e-05, momentum=0.1, affine=False, track_running_stats=True)
              )
            )
          )
        )
        (7): MixedOp(
          (_ops): ModuleList(
            (0): Sequential(
              (0): MaxPool2d(kernel_size=3, stride=1, padding=1, dilation=1, ceil_mode=False)
              (1): BatchNorm2d(16, eps=1e-05, momentum=0.1, affine=False, track_running_stats=True)
            )
            (1): Sequential(
              (0): AvgPool2d(kernel_size=3, stride=1, padding=1)
              (1): BatchNorm2d(16, eps=1e-05, momentum=0.1, affine=False, track_running_stats=True)
            )
            (2): Identity()
            (3): SepConv(
              (op): Sequential(
                (0): ReLU()
                (1): Conv2d(16, 16, kernel_size=(3, 3), stride=(1, 1), padding=(1, 1), groups=16, bias=False)
                (2): Conv2d(16, 16, kernel_size=(1, 1), stride=(1, 1), bias=False)
                (3): BatchNorm2d(16, eps=1e-05, momentum=0.1, affine=False, track_running_stats=True)
                (4): ReLU()
                (5): Conv2d(16, 16, kernel_size=(3, 3), stride=(1, 1), padding=(1, 1), groups=16, bias=False)
                (6): Conv2d(16, 16, kernel_size=(1, 1), stride=(1, 1), bias=False)
                (7): BatchNorm2d(16, eps=1e-05, momentum=0.1, affine=False, track_running_stats=True)
              )
            )
            (4): SepConv(
              (op): Sequential(
                (0): ReLU()
                (1): Conv2d(16, 16, kernel_size=(5, 5), stride=(1, 1), padding=(2, 2), groups=16, bias=False)
                (2): Conv2d(16, 16, kernel_size=(1, 1), stride=(1, 1), bias=False)
                (3): BatchNorm2d(16, eps=1e-05, momentum=0.1, affine=False, track_running_stats=True)
                (4): ReLU()
                (5): Conv2d(16, 16, kernel_size=(5, 5), stride=(1, 1), padding=(2, 2), groups=16, bias=False)
                (6): Conv2d(16, 16, kernel_size=(1, 1), stride=(1, 1), bias=False)
                (7): BatchNorm2d(16, eps=1e-05, momentum=0.1, affine=False, track_running_stats=True)
              )
            )
          )
        )
        (8): MixedOp(
          (_ops): ModuleList(
            (0): Sequential(
              (0): MaxPool2d(kernel_size=3, stride=1, padding=1, dilation=1, ceil_mode=False)
              (1): BatchNorm2d(16, eps=1e-05, momentum=0.1, affine=False, track_running_stats=True)
            )
            (1): Sequential(
              (0): AvgPool2d(kernel_size=3, stride=1, padding=1)
              (1): BatchNorm2d(16, eps=1e-05, momentum=0.1, affine=False, track_running_stats=True)
            )
            (2): Identity()
            (3): SepConv(
              (op): Sequential(
                (0): ReLU()
                (1): Conv2d(16, 16, kernel_size=(3, 3), stride=(1, 1), padding=(1, 1), groups=16, bias=False)
                (2): Conv2d(16, 16, kernel_size=(1, 1), stride=(1, 1), bias=False)
                (3): BatchNorm2d(16, eps=1e-05, momentum=0.1, affine=False, track_running_stats=True)
                (4): ReLU()
                (5): Conv2d(16, 16, kernel_size=(3, 3), stride=(1, 1), padding=(1, 1), groups=16, bias=False)
                (6): Conv2d(16, 16, kernel_size=(1, 1), stride=(1, 1), bias=False)
                (7): BatchNorm2d(16, eps=1e-05, momentum=0.1, affine=False, track_running_stats=True)
              )
            )
            (4): SepConv(
              (op): Sequential(
                (0): ReLU()
                (1): Conv2d(16, 16, kernel_size=(5, 5), stride=(1, 1), padding=(2, 2), groups=16, bias=False)
                (2): Conv2d(16, 16, kernel_size=(1, 1), stride=(1, 1), bias=False)
                (3): BatchNorm2d(16, eps=1e-05, momentum=0.1, affine=False, track_running_stats=True)
                (4): ReLU()
                (5): Conv2d(16, 16, kernel_size=(5, 5), stride=(1, 1), padding=(2, 2), groups=16, bias=False)
                (6): Conv2d(16, 16, kernel_size=(1, 1), stride=(1, 1), bias=False)
                (7): BatchNorm2d(16, eps=1e-05, momentum=0.1, affine=False, track_running_stats=True)
              )
            )
          )
        )
        (9): MixedOp(
          (_ops): ModuleList(
            (0): Sequential(
              (0): MaxPool2d(kernel_size=3, stride=1, padding=1, dilation=1, ceil_mode=False)
              (1): BatchNorm2d(16, eps=1e-05, momentum=0.1, affine=False, track_running_stats=True)
            )
            (1): Sequential(
              (0): AvgPool2d(kernel_size=3, stride=1, padding=1)
              (1): BatchNorm2d(16, eps=1e-05, momentum=0.1, affine=False, track_running_stats=True)
            )
            (2): Identity()
            (3): SepConv(
              (op): Sequential(
                (0): ReLU()
                (1): Conv2d(16, 16, kernel_size=(3, 3), stride=(1, 1), padding=(1, 1), groups=16, bias=False)
                (2): Conv2d(16, 16, kernel_size=(1, 1), stride=(1, 1), bias=False)
                (3): BatchNorm2d(16, eps=1e-05, momentum=0.1, affine=False, track_running_stats=True)
                (4): ReLU()
                (5): Conv2d(16, 16, kernel_size=(3, 3), stride=(1, 1), padding=(1, 1), groups=16, bias=False)
                (6): Conv2d(16, 16, kernel_size=(1, 1), stride=(1, 1), bias=False)
                (7): BatchNorm2d(16, eps=1e-05, momentum=0.1, affine=False, track_running_stats=True)
              )
            )
            (4): SepConv(
              (op): Sequential(
                (0): ReLU()
                (1): Conv2d(16, 16, kernel_size=(5, 5), stride=(1, 1), padding=(2, 2), groups=16, bias=False)
                (2): Conv2d(16, 16, kernel_size=(1, 1), stride=(1, 1), bias=False)
                (3): BatchNorm2d(16, eps=1e-05, momentum=0.1, affine=False, track_running_stats=True)
                (4): ReLU()
                (5): Conv2d(16, 16, kernel_size=(5, 5), stride=(1, 1), padding=(2, 2), groups=16, bias=False)
                (6): Conv2d(16, 16, kernel_size=(1, 1), stride=(1, 1), bias=False)
                (7): BatchNorm2d(16, eps=1e-05, momentum=0.1, affine=False, track_running_stats=True)
              )
            )
          )
        )
        (10): MixedOp(
          (_ops): ModuleList(
            (0): Sequential(
              (0): MaxPool2d(kernel_size=3, stride=1, padding=1, dilation=1, ceil_mode=False)
              (1): BatchNorm2d(16, eps=1e-05, momentum=0.1, affine=False, track_running_stats=True)
            )
            (1): Sequential(
              (0): AvgPool2d(kernel_size=3, stride=1, padding=1)
              (1): BatchNorm2d(16, eps=1e-05, momentum=0.1, affine=False, track_running_stats=True)
            )
            (2): Identity()
            (3): SepConv(
              (op): Sequential(
                (0): ReLU()
                (1): Conv2d(16, 16, kernel_size=(3, 3), stride=(1, 1), padding=(1, 1), groups=16, bias=False)
                (2): Conv2d(16, 16, kernel_size=(1, 1), stride=(1, 1), bias=False)
                (3): BatchNorm2d(16, eps=1e-05, momentum=0.1, affine=False, track_running_stats=True)
                (4): ReLU()
                (5): Conv2d(16, 16, kernel_size=(3, 3), stride=(1, 1), padding=(1, 1), groups=16, bias=False)
                (6): Conv2d(16, 16, kernel_size=(1, 1), stride=(1, 1), bias=False)
                (7): BatchNorm2d(16, eps=1e-05, momentum=0.1, affine=False, track_running_stats=True)
              )
            )
            (4): SepConv(
              (op): Sequential(
                (0): ReLU()
                (1): Conv2d(16, 16, kernel_size=(5, 5), stride=(1, 1), padding=(2, 2), groups=16, bias=False)
                (2): Conv2d(16, 16, kernel_size=(1, 1), stride=(1, 1), bias=False)
                (3): BatchNorm2d(16, eps=1e-05, momentum=0.1, affine=False, track_running_stats=True)
                (4): ReLU()
                (5): Conv2d(16, 16, kernel_size=(5, 5), stride=(1, 1), padding=(2, 2), groups=16, bias=False)
                (6): Conv2d(16, 16, kernel_size=(1, 1), stride=(1, 1), bias=False)
                (7): BatchNorm2d(16, eps=1e-05, momentum=0.1, affine=False, track_running_stats=True)
              )
            )
          )
        )
        (11): MixedOp(
          (_ops): ModuleList(
            (0): Sequential(
              (0): MaxPool2d(kernel_size=3, stride=1, padding=1, dilation=1, ceil_mode=False)
              (1): BatchNorm2d(16, eps=1e-05, momentum=0.1, affine=False, track_running_stats=True)
            )
            (1): Sequential(
              (0): AvgPool2d(kernel_size=3, stride=1, padding=1)
              (1): BatchNorm2d(16, eps=1e-05, momentum=0.1, affine=False, track_running_stats=True)
            )
            (2): Identity()
            (3): SepConv(
              (op): Sequential(
                (0): ReLU()
                (1): Conv2d(16, 16, kernel_size=(3, 3), stride=(1, 1), padding=(1, 1), groups=16, bias=False)
                (2): Conv2d(16, 16, kernel_size=(1, 1), stride=(1, 1), bias=False)
                (3): BatchNorm2d(16, eps=1e-05, momentum=0.1, affine=False, track_running_stats=True)
                (4): ReLU()
                (5): Conv2d(16, 16, kernel_size=(3, 3), stride=(1, 1), padding=(1, 1), groups=16, bias=False)
                (6): Conv2d(16, 16, kernel_size=(1, 1), stride=(1, 1), bias=False)
                (7): BatchNorm2d(16, eps=1e-05, momentum=0.1, affine=False, track_running_stats=True)
              )
            )
            (4): SepConv(
              (op): Sequential(
                (0): ReLU()
                (1): Conv2d(16, 16, kernel_size=(5, 5), stride=(1, 1), padding=(2, 2), groups=16, bias=False)
                (2): Conv2d(16, 16, kernel_size=(1, 1), stride=(1, 1), bias=False)
                (3): BatchNorm2d(16, eps=1e-05, momentum=0.1, affine=False, track_running_stats=True)
                (4): ReLU()
                (5): Conv2d(16, 16, kernel_size=(5, 5), stride=(1, 1), padding=(2, 2), groups=16, bias=False)
                (6): Conv2d(16, 16, kernel_size=(1, 1), stride=(1, 1), bias=False)
                (7): BatchNorm2d(16, eps=1e-05, momentum=0.1, affine=False, track_running_stats=True)
              )
            )
          )
        )
        (12): MixedOp(
          (_ops): ModuleList(
            (0): Sequential(
              (0): MaxPool2d(kernel_size=3, stride=1, padding=1, dilation=1, ceil_mode=False)
              (1): BatchNorm2d(16, eps=1e-05, momentum=0.1, affine=False, track_running_stats=True)
            )
            (1): Sequential(
              (0): AvgPool2d(kernel_size=3, stride=1, padding=1)
              (1): BatchNorm2d(16, eps=1e-05, momentum=0.1, affine=False, track_running_stats=True)
            )
            (2): Identity()
            (3): SepConv(
              (op): Sequential(
                (0): ReLU()
                (1): Conv2d(16, 16, kernel_size=(3, 3), stride=(1, 1), padding=(1, 1), groups=16, bias=False)
                (2): Conv2d(16, 16, kernel_size=(1, 1), stride=(1, 1), bias=False)
                (3): BatchNorm2d(16, eps=1e-05, momentum=0.1, affine=False, track_running_stats=True)
                (4): ReLU()
                (5): Conv2d(16, 16, kernel_size=(3, 3), stride=(1, 1), padding=(1, 1), groups=16, bias=False)
                (6): Conv2d(16, 16, kernel_size=(1, 1), stride=(1, 1), bias=False)
                (7): BatchNorm2d(16, eps=1e-05, momentum=0.1, affine=False, track_running_stats=True)
              )
            )
            (4): SepConv(
              (op): Sequential(
                (0): ReLU()
                (1): Conv2d(16, 16, kernel_size=(5, 5), stride=(1, 1), padding=(2, 2), groups=16, bias=False)
                (2): Conv2d(16, 16, kernel_size=(1, 1), stride=(1, 1), bias=False)
                (3): BatchNorm2d(16, eps=1e-05, momentum=0.1, affine=False, track_running_stats=True)
                (4): ReLU()
                (5): Conv2d(16, 16, kernel_size=(5, 5), stride=(1, 1), padding=(2, 2), groups=16, bias=False)
                (6): Conv2d(16, 16, kernel_size=(1, 1), stride=(1, 1), bias=False)
                (7): BatchNorm2d(16, eps=1e-05, momentum=0.1, affine=False, track_running_stats=True)
              )
            )
          )
        )
        (13): MixedOp(
          (_ops): ModuleList(
            (0): Sequential(
              (0): MaxPool2d(kernel_size=3, stride=1, padding=1, dilation=1, ceil_mode=False)
              (1): BatchNorm2d(16, eps=1e-05, momentum=0.1, affine=False, track_running_stats=True)
            )
            (1): Sequential(
              (0): AvgPool2d(kernel_size=3, stride=1, padding=1)
              (1): BatchNorm2d(16, eps=1e-05, momentum=0.1, affine=False, track_running_stats=True)
            )
            (2): Identity()
            (3): SepConv(
              (op): Sequential(
                (0): ReLU()
                (1): Conv2d(16, 16, kernel_size=(3, 3), stride=(1, 1), padding=(1, 1), groups=16, bias=False)
                (2): Conv2d(16, 16, kernel_size=(1, 1), stride=(1, 1), bias=False)
                (3): BatchNorm2d(16, eps=1e-05, momentum=0.1, affine=False, track_running_stats=True)
                (4): ReLU()
                (5): Conv2d(16, 16, kernel_size=(3, 3), stride=(1, 1), padding=(1, 1), groups=16, bias=False)
                (6): Conv2d(16, 16, kernel_size=(1, 1), stride=(1, 1), bias=False)
                (7): BatchNorm2d(16, eps=1e-05, momentum=0.1, affine=False, track_running_stats=True)
              )
            )
            (4): SepConv(
              (op): Sequential(
                (0): ReLU()
                (1): Conv2d(16, 16, kernel_size=(5, 5), stride=(1, 1), padding=(2, 2), groups=16, bias=False)
                (2): Conv2d(16, 16, kernel_size=(1, 1), stride=(1, 1), bias=False)
                (3): BatchNorm2d(16, eps=1e-05, momentum=0.1, affine=False, track_running_stats=True)
                (4): ReLU()
                (5): Conv2d(16, 16, kernel_size=(5, 5), stride=(1, 1), padding=(2, 2), groups=16, bias=False)
                (6): Conv2d(16, 16, kernel_size=(1, 1), stride=(1, 1), bias=False)
                (7): BatchNorm2d(16, eps=1e-05, momentum=0.1, affine=False, track_running_stats=True)
              )
            )
          )
        )
      )
      (_bns): ModuleList()
    )
    (2): Cell(
      (preprocess0): ReLUConvBN(
        (op): Sequential(
          (0): ReLU()
          (1): Conv2d(64, 16, kernel_size=(1, 1), stride=(1, 1), bias=False)
          (2): BatchNorm2d(16, eps=1e-05, momentum=0.1, affine=False, track_running_stats=True)
        )
      )
      (preprocess1): ReLUConvBN(
        (op): Sequential(
          (0): ReLU()
          (1): Conv2d(64, 16, kernel_size=(1, 1), stride=(1, 1), bias=False)
          (2): BatchNorm2d(16, eps=1e-05, momentum=0.1, affine=False, track_running_stats=True)
        )
      )
      (_ops): ModuleList(
        (0): MixedOp(
          (_ops): ModuleList(
            (0): Sequential(
              (0): MaxPool2d(kernel_size=3, stride=1, padding=1, dilation=1, ceil_mode=False)
              (1): BatchNorm2d(16, eps=1e-05, momentum=0.1, affine=False, track_running_stats=True)
            )
            (1): Sequential(
              (0): AvgPool2d(kernel_size=3, stride=1, padding=1)
              (1): BatchNorm2d(16, eps=1e-05, momentum=0.1, affine=False, track_running_stats=True)
            )
            (2): Identity()
            (3): SepConv(
              (op): Sequential(
                (0): ReLU()
                (1): Conv2d(16, 16, kernel_size=(3, 3), stride=(1, 1), padding=(1, 1), groups=16, bias=False)
                (2): Conv2d(16, 16, kernel_size=(1, 1), stride=(1, 1), bias=False)
                (3): BatchNorm2d(16, eps=1e-05, momentum=0.1, affine=False, track_running_stats=True)
                (4): ReLU()
                (5): Conv2d(16, 16, kernel_size=(3, 3), stride=(1, 1), padding=(1, 1), groups=16, bias=False)
                (6): Conv2d(16, 16, kernel_size=(1, 1), stride=(1, 1), bias=False)
                (7): BatchNorm2d(16, eps=1e-05, momentum=0.1, affine=False, track_running_stats=True)
              )
            )
            (4): SepConv(
              (op): Sequential(
                (0): ReLU()
                (1): Conv2d(16, 16, kernel_size=(5, 5), stride=(1, 1), padding=(2, 2), groups=16, bias=False)
                (2): Conv2d(16, 16, kernel_size=(1, 1), stride=(1, 1), bias=False)
                (3): BatchNorm2d(16, eps=1e-05, momentum=0.1, affine=False, track_running_stats=True)
                (4): ReLU()
                (5): Conv2d(16, 16, kernel_size=(5, 5), stride=(1, 1), padding=(2, 2), groups=16, bias=False)
                (6): Conv2d(16, 16, kernel_size=(1, 1), stride=(1, 1), bias=False)
                (7): BatchNorm2d(16, eps=1e-05, momentum=0.1, affine=False, track_running_stats=True)
              )
            )
          )
        )
        (1): MixedOp(
          (_ops): ModuleList(
            (0): Sequential(
              (0): MaxPool2d(kernel_size=3, stride=1, padding=1, dilation=1, ceil_mode=False)
              (1): BatchNorm2d(16, eps=1e-05, momentum=0.1, affine=False, track_running_stats=True)
            )
            (1): Sequential(
              (0): AvgPool2d(kernel_size=3, stride=1, padding=1)
              (1): BatchNorm2d(16, eps=1e-05, momentum=0.1, affine=False, track_running_stats=True)
            )
            (2): Identity()
            (3): SepConv(
              (op): Sequential(
                (0): ReLU()
                (1): Conv2d(16, 16, kernel_size=(3, 3), stride=(1, 1), padding=(1, 1), groups=16, bias=False)
                (2): Conv2d(16, 16, kernel_size=(1, 1), stride=(1, 1), bias=False)
                (3): BatchNorm2d(16, eps=1e-05, momentum=0.1, affine=False, track_running_stats=True)
                (4): ReLU()
                (5): Conv2d(16, 16, kernel_size=(3, 3), stride=(1, 1), padding=(1, 1), groups=16, bias=False)
                (6): Conv2d(16, 16, kernel_size=(1, 1), stride=(1, 1), bias=False)
                (7): BatchNorm2d(16, eps=1e-05, momentum=0.1, affine=False, track_running_stats=True)
              )
            )
            (4): SepConv(
              (op): Sequential(
                (0): ReLU()
                (1): Conv2d(16, 16, kernel_size=(5, 5), stride=(1, 1), padding=(2, 2), groups=16, bias=False)
                (2): Conv2d(16, 16, kernel_size=(1, 1), stride=(1, 1), bias=False)
                (3): BatchNorm2d(16, eps=1e-05, momentum=0.1, affine=False, track_running_stats=True)
                (4): ReLU()
                (5): Conv2d(16, 16, kernel_size=(5, 5), stride=(1, 1), padding=(2, 2), groups=16, bias=False)
                (6): Conv2d(16, 16, kernel_size=(1, 1), stride=(1, 1), bias=False)
                (7): BatchNorm2d(16, eps=1e-05, momentum=0.1, affine=False, track_running_stats=True)
              )
            )
          )
        )
        (2): MixedOp(
          (_ops): ModuleList(
            (0): Sequential(
              (0): MaxPool2d(kernel_size=3, stride=1, padding=1, dilation=1, ceil_mode=False)
              (1): BatchNorm2d(16, eps=1e-05, momentum=0.1, affine=False, track_running_stats=True)
            )
            (1): Sequential(
              (0): AvgPool2d(kernel_size=3, stride=1, padding=1)
              (1): BatchNorm2d(16, eps=1e-05, momentum=0.1, affine=False, track_running_stats=True)
            )
            (2): Identity()
            (3): SepConv(
              (op): Sequential(
                (0): ReLU()
                (1): Conv2d(16, 16, kernel_size=(3, 3), stride=(1, 1), padding=(1, 1), groups=16, bias=False)
                (2): Conv2d(16, 16, kernel_size=(1, 1), stride=(1, 1), bias=False)
                (3): BatchNorm2d(16, eps=1e-05, momentum=0.1, affine=False, track_running_stats=True)
                (4): ReLU()
                (5): Conv2d(16, 16, kernel_size=(3, 3), stride=(1, 1), padding=(1, 1), groups=16, bias=False)
                (6): Conv2d(16, 16, kernel_size=(1, 1), stride=(1, 1), bias=False)
                (7): BatchNorm2d(16, eps=1e-05, momentum=0.1, affine=False, track_running_stats=True)
              )
            )
            (4): SepConv(
              (op): Sequential(
                (0): ReLU()
                (1): Conv2d(16, 16, kernel_size=(5, 5), stride=(1, 1), padding=(2, 2), groups=16, bias=False)
                (2): Conv2d(16, 16, kernel_size=(1, 1), stride=(1, 1), bias=False)
                (3): BatchNorm2d(16, eps=1e-05, momentum=0.1, affine=False, track_running_stats=True)
                (4): ReLU()
                (5): Conv2d(16, 16, kernel_size=(5, 5), stride=(1, 1), padding=(2, 2), groups=16, bias=False)
                (6): Conv2d(16, 16, kernel_size=(1, 1), stride=(1, 1), bias=False)
                (7): BatchNorm2d(16, eps=1e-05, momentum=0.1, affine=False, track_running_stats=True)
              )
            )
          )
        )
        (3): MixedOp(
          (_ops): ModuleList(
            (0): Sequential(
              (0): MaxPool2d(kernel_size=3, stride=1, padding=1, dilation=1, ceil_mode=False)
              (1): BatchNorm2d(16, eps=1e-05, momentum=0.1, affine=False, track_running_stats=True)
            )
            (1): Sequential(
              (0): AvgPool2d(kernel_size=3, stride=1, padding=1)
              (1): BatchNorm2d(16, eps=1e-05, momentum=0.1, affine=False, track_running_stats=True)
            )
            (2): Identity()
            (3): SepConv(
              (op): Sequential(
                (0): ReLU()
                (1): Conv2d(16, 16, kernel_size=(3, 3), stride=(1, 1), padding=(1, 1), groups=16, bias=False)
                (2): Conv2d(16, 16, kernel_size=(1, 1), stride=(1, 1), bias=False)
                (3): BatchNorm2d(16, eps=1e-05, momentum=0.1, affine=False, track_running_stats=True)
                (4): ReLU()
                (5): Conv2d(16, 16, kernel_size=(3, 3), stride=(1, 1), padding=(1, 1), groups=16, bias=False)
                (6): Conv2d(16, 16, kernel_size=(1, 1), stride=(1, 1), bias=False)
                (7): BatchNorm2d(16, eps=1e-05, momentum=0.1, affine=False, track_running_stats=True)
              )
            )
            (4): SepConv(
              (op): Sequential(
                (0): ReLU()
                (1): Conv2d(16, 16, kernel_size=(5, 5), stride=(1, 1), padding=(2, 2), groups=16, bias=False)
                (2): Conv2d(16, 16, kernel_size=(1, 1), stride=(1, 1), bias=False)
                (3): BatchNorm2d(16, eps=1e-05, momentum=0.1, affine=False, track_running_stats=True)
                (4): ReLU()
                (5): Conv2d(16, 16, kernel_size=(5, 5), stride=(1, 1), padding=(2, 2), groups=16, bias=False)
                (6): Conv2d(16, 16, kernel_size=(1, 1), stride=(1, 1), bias=False)
                (7): BatchNorm2d(16, eps=1e-05, momentum=0.1, affine=False, track_running_stats=True)
              )
            )
          )
        )
        (4): MixedOp(
          (_ops): ModuleList(
            (0): Sequential(
              (0): MaxPool2d(kernel_size=3, stride=1, padding=1, dilation=1, ceil_mode=False)
              (1): BatchNorm2d(16, eps=1e-05, momentum=0.1, affine=False, track_running_stats=True)
            )
            (1): Sequential(
              (0): AvgPool2d(kernel_size=3, stride=1, padding=1)
              (1): BatchNorm2d(16, eps=1e-05, momentum=0.1, affine=False, track_running_stats=True)
            )
            (2): Identity()
            (3): SepConv(
              (op): Sequential(
                (0): ReLU()
                (1): Conv2d(16, 16, kernel_size=(3, 3), stride=(1, 1), padding=(1, 1), groups=16, bias=False)
                (2): Conv2d(16, 16, kernel_size=(1, 1), stride=(1, 1), bias=False)
                (3): BatchNorm2d(16, eps=1e-05, momentum=0.1, affine=False, track_running_stats=True)
                (4): ReLU()
                (5): Conv2d(16, 16, kernel_size=(3, 3), stride=(1, 1), padding=(1, 1), groups=16, bias=False)
                (6): Conv2d(16, 16, kernel_size=(1, 1), stride=(1, 1), bias=False)
                (7): BatchNorm2d(16, eps=1e-05, momentum=0.1, affine=False, track_running_stats=True)
              )
            )
            (4): SepConv(
              (op): Sequential(
                (0): ReLU()
                (1): Conv2d(16, 16, kernel_size=(5, 5), stride=(1, 1), padding=(2, 2), groups=16, bias=False)
                (2): Conv2d(16, 16, kernel_size=(1, 1), stride=(1, 1), bias=False)
                (3): BatchNorm2d(16, eps=1e-05, momentum=0.1, affine=False, track_running_stats=True)
                (4): ReLU()
                (5): Conv2d(16, 16, kernel_size=(5, 5), stride=(1, 1), padding=(2, 2), groups=16, bias=False)
                (6): Conv2d(16, 16, kernel_size=(1, 1), stride=(1, 1), bias=False)
                (7): BatchNorm2d(16, eps=1e-05, momentum=0.1, affine=False, track_running_stats=True)
              )
            )
          )
        )
        (5): MixedOp(
          (_ops): ModuleList(
            (0): Sequential(
              (0): MaxPool2d(kernel_size=3, stride=1, padding=1, dilation=1, ceil_mode=False)
              (1): BatchNorm2d(16, eps=1e-05, momentum=0.1, affine=False, track_running_stats=True)
            )
            (1): Sequential(
              (0): AvgPool2d(kernel_size=3, stride=1, padding=1)
              (1): BatchNorm2d(16, eps=1e-05, momentum=0.1, affine=False, track_running_stats=True)
            )
            (2): Identity()
            (3): SepConv(
              (op): Sequential(
                (0): ReLU()
                (1): Conv2d(16, 16, kernel_size=(3, 3), stride=(1, 1), padding=(1, 1), groups=16, bias=False)
                (2): Conv2d(16, 16, kernel_size=(1, 1), stride=(1, 1), bias=False)
                (3): BatchNorm2d(16, eps=1e-05, momentum=0.1, affine=False, track_running_stats=True)
                (4): ReLU()
                (5): Conv2d(16, 16, kernel_size=(3, 3), stride=(1, 1), padding=(1, 1), groups=16, bias=False)
                (6): Conv2d(16, 16, kernel_size=(1, 1), stride=(1, 1), bias=False)
                (7): BatchNorm2d(16, eps=1e-05, momentum=0.1, affine=False, track_running_stats=True)
              )
            )
            (4): SepConv(
              (op): Sequential(
                (0): ReLU()
                (1): Conv2d(16, 16, kernel_size=(5, 5), stride=(1, 1), padding=(2, 2), groups=16, bias=False)
                (2): Conv2d(16, 16, kernel_size=(1, 1), stride=(1, 1), bias=False)
                (3): BatchNorm2d(16, eps=1e-05, momentum=0.1, affine=False, track_running_stats=True)
                (4): ReLU()
                (5): Conv2d(16, 16, kernel_size=(5, 5), stride=(1, 1), padding=(2, 2), groups=16, bias=False)
                (6): Conv2d(16, 16, kernel_size=(1, 1), stride=(1, 1), bias=False)
                (7): BatchNorm2d(16, eps=1e-05, momentum=0.1, affine=False, track_running_stats=True)
              )
            )
          )
        )
        (6): MixedOp(
          (_ops): ModuleList(
            (0): Sequential(
              (0): MaxPool2d(kernel_size=3, stride=1, padding=1, dilation=1, ceil_mode=False)
              (1): BatchNorm2d(16, eps=1e-05, momentum=0.1, affine=False, track_running_stats=True)
            )
            (1): Sequential(
              (0): AvgPool2d(kernel_size=3, stride=1, padding=1)
              (1): BatchNorm2d(16, eps=1e-05, momentum=0.1, affine=False, track_running_stats=True)
            )
            (2): Identity()
            (3): SepConv(
              (op): Sequential(
                (0): ReLU()
                (1): Conv2d(16, 16, kernel_size=(3, 3), stride=(1, 1), padding=(1, 1), groups=16, bias=False)
                (2): Conv2d(16, 16, kernel_size=(1, 1), stride=(1, 1), bias=False)
                (3): BatchNorm2d(16, eps=1e-05, momentum=0.1, affine=False, track_running_stats=True)
                (4): ReLU()
                (5): Conv2d(16, 16, kernel_size=(3, 3), stride=(1, 1), padding=(1, 1), groups=16, bias=False)
                (6): Conv2d(16, 16, kernel_size=(1, 1), stride=(1, 1), bias=False)
                (7): BatchNorm2d(16, eps=1e-05, momentum=0.1, affine=False, track_running_stats=True)
              )
            )
            (4): SepConv(
              (op): Sequential(
                (0): ReLU()
                (1): Conv2d(16, 16, kernel_size=(5, 5), stride=(1, 1), padding=(2, 2), groups=16, bias=False)
                (2): Conv2d(16, 16, kernel_size=(1, 1), stride=(1, 1), bias=False)
                (3): BatchNorm2d(16, eps=1e-05, momentum=0.1, affine=False, track_running_stats=True)
                (4): ReLU()
                (5): Conv2d(16, 16, kernel_size=(5, 5), stride=(1, 1), padding=(2, 2), groups=16, bias=False)
                (6): Conv2d(16, 16, kernel_size=(1, 1), stride=(1, 1), bias=False)
                (7): BatchNorm2d(16, eps=1e-05, momentum=0.1, affine=False, track_running_stats=True)
              )
            )
          )
        )
        (7): MixedOp(
          (_ops): ModuleList(
            (0): Sequential(
              (0): MaxPool2d(kernel_size=3, stride=1, padding=1, dilation=1, ceil_mode=False)
              (1): BatchNorm2d(16, eps=1e-05, momentum=0.1, affine=False, track_running_stats=True)
            )
            (1): Sequential(
              (0): AvgPool2d(kernel_size=3, stride=1, padding=1)
              (1): BatchNorm2d(16, eps=1e-05, momentum=0.1, affine=False, track_running_stats=True)
            )
            (2): Identity()
            (3): SepConv(
              (op): Sequential(
                (0): ReLU()
                (1): Conv2d(16, 16, kernel_size=(3, 3), stride=(1, 1), padding=(1, 1), groups=16, bias=False)
                (2): Conv2d(16, 16, kernel_size=(1, 1), stride=(1, 1), bias=False)
                (3): BatchNorm2d(16, eps=1e-05, momentum=0.1, affine=False, track_running_stats=True)
                (4): ReLU()
                (5): Conv2d(16, 16, kernel_size=(3, 3), stride=(1, 1), padding=(1, 1), groups=16, bias=False)
                (6): Conv2d(16, 16, kernel_size=(1, 1), stride=(1, 1), bias=False)
                (7): BatchNorm2d(16, eps=1e-05, momentum=0.1, affine=False, track_running_stats=True)
              )
            )
            (4): SepConv(
              (op): Sequential(
                (0): ReLU()
                (1): Conv2d(16, 16, kernel_size=(5, 5), stride=(1, 1), padding=(2, 2), groups=16, bias=False)
                (2): Conv2d(16, 16, kernel_size=(1, 1), stride=(1, 1), bias=False)
                (3): BatchNorm2d(16, eps=1e-05, momentum=0.1, affine=False, track_running_stats=True)
                (4): ReLU()
                (5): Conv2d(16, 16, kernel_size=(5, 5), stride=(1, 1), padding=(2, 2), groups=16, bias=False)
                (6): Conv2d(16, 16, kernel_size=(1, 1), stride=(1, 1), bias=False)
                (7): BatchNorm2d(16, eps=1e-05, momentum=0.1, affine=False, track_running_stats=True)
              )
            )
          )
        )
        (8): MixedOp(
          (_ops): ModuleList(
            (0): Sequential(
              (0): MaxPool2d(kernel_size=3, stride=1, padding=1, dilation=1, ceil_mode=False)
              (1): BatchNorm2d(16, eps=1e-05, momentum=0.1, affine=False, track_running_stats=True)
            )
            (1): Sequential(
              (0): AvgPool2d(kernel_size=3, stride=1, padding=1)
              (1): BatchNorm2d(16, eps=1e-05, momentum=0.1, affine=False, track_running_stats=True)
            )
            (2): Identity()
            (3): SepConv(
              (op): Sequential(
                (0): ReLU()
                (1): Conv2d(16, 16, kernel_size=(3, 3), stride=(1, 1), padding=(1, 1), groups=16, bias=False)
                (2): Conv2d(16, 16, kernel_size=(1, 1), stride=(1, 1), bias=False)
                (3): BatchNorm2d(16, eps=1e-05, momentum=0.1, affine=False, track_running_stats=True)
                (4): ReLU()
                (5): Conv2d(16, 16, kernel_size=(3, 3), stride=(1, 1), padding=(1, 1), groups=16, bias=False)
                (6): Conv2d(16, 16, kernel_size=(1, 1), stride=(1, 1), bias=False)
                (7): BatchNorm2d(16, eps=1e-05, momentum=0.1, affine=False, track_running_stats=True)
              )
            )
            (4): SepConv(
              (op): Sequential(
                (0): ReLU()
                (1): Conv2d(16, 16, kernel_size=(5, 5), stride=(1, 1), padding=(2, 2), groups=16, bias=False)
                (2): Conv2d(16, 16, kernel_size=(1, 1), stride=(1, 1), bias=False)
                (3): BatchNorm2d(16, eps=1e-05, momentum=0.1, affine=False, track_running_stats=True)
                (4): ReLU()
                (5): Conv2d(16, 16, kernel_size=(5, 5), stride=(1, 1), padding=(2, 2), groups=16, bias=False)
                (6): Conv2d(16, 16, kernel_size=(1, 1), stride=(1, 1), bias=False)
                (7): BatchNorm2d(16, eps=1e-05, momentum=0.1, affine=False, track_running_stats=True)
              )
            )
          )
        )
        (9): MixedOp(
          (_ops): ModuleList(
            (0): Sequential(
              (0): MaxPool2d(kernel_size=3, stride=1, padding=1, dilation=1, ceil_mode=False)
              (1): BatchNorm2d(16, eps=1e-05, momentum=0.1, affine=False, track_running_stats=True)
            )
            (1): Sequential(
              (0): AvgPool2d(kernel_size=3, stride=1, padding=1)
              (1): BatchNorm2d(16, eps=1e-05, momentum=0.1, affine=False, track_running_stats=True)
            )
            (2): Identity()
            (3): SepConv(
              (op): Sequential(
                (0): ReLU()
                (1): Conv2d(16, 16, kernel_size=(3, 3), stride=(1, 1), padding=(1, 1), groups=16, bias=False)
                (2): Conv2d(16, 16, kernel_size=(1, 1), stride=(1, 1), bias=False)
                (3): BatchNorm2d(16, eps=1e-05, momentum=0.1, affine=False, track_running_stats=True)
                (4): ReLU()
                (5): Conv2d(16, 16, kernel_size=(3, 3), stride=(1, 1), padding=(1, 1), groups=16, bias=False)
                (6): Conv2d(16, 16, kernel_size=(1, 1), stride=(1, 1), bias=False)
                (7): BatchNorm2d(16, eps=1e-05, momentum=0.1, affine=False, track_running_stats=True)
              )
            )
            (4): SepConv(
              (op): Sequential(
                (0): ReLU()
                (1): Conv2d(16, 16, kernel_size=(5, 5), stride=(1, 1), padding=(2, 2), groups=16, bias=False)
                (2): Conv2d(16, 16, kernel_size=(1, 1), stride=(1, 1), bias=False)
                (3): BatchNorm2d(16, eps=1e-05, momentum=0.1, affine=False, track_running_stats=True)
                (4): ReLU()
                (5): Conv2d(16, 16, kernel_size=(5, 5), stride=(1, 1), padding=(2, 2), groups=16, bias=False)
                (6): Conv2d(16, 16, kernel_size=(1, 1), stride=(1, 1), bias=False)
                (7): BatchNorm2d(16, eps=1e-05, momentum=0.1, affine=False, track_running_stats=True)
              )
            )
          )
        )
        (10): MixedOp(
          (_ops): ModuleList(
            (0): Sequential(
              (0): MaxPool2d(kernel_size=3, stride=1, padding=1, dilation=1, ceil_mode=False)
              (1): BatchNorm2d(16, eps=1e-05, momentum=0.1, affine=False, track_running_stats=True)
            )
            (1): Sequential(
              (0): AvgPool2d(kernel_size=3, stride=1, padding=1)
              (1): BatchNorm2d(16, eps=1e-05, momentum=0.1, affine=False, track_running_stats=True)
            )
            (2): Identity()
            (3): SepConv(
              (op): Sequential(
                (0): ReLU()
                (1): Conv2d(16, 16, kernel_size=(3, 3), stride=(1, 1), padding=(1, 1), groups=16, bias=False)
                (2): Conv2d(16, 16, kernel_size=(1, 1), stride=(1, 1), bias=False)
                (3): BatchNorm2d(16, eps=1e-05, momentum=0.1, affine=False, track_running_stats=True)
                (4): ReLU()
                (5): Conv2d(16, 16, kernel_size=(3, 3), stride=(1, 1), padding=(1, 1), groups=16, bias=False)
                (6): Conv2d(16, 16, kernel_size=(1, 1), stride=(1, 1), bias=False)
                (7): BatchNorm2d(16, eps=1e-05, momentum=0.1, affine=False, track_running_stats=True)
              )
            )
            (4): SepConv(
              (op): Sequential(
                (0): ReLU()
                (1): Conv2d(16, 16, kernel_size=(5, 5), stride=(1, 1), padding=(2, 2), groups=16, bias=False)
                (2): Conv2d(16, 16, kernel_size=(1, 1), stride=(1, 1), bias=False)
                (3): BatchNorm2d(16, eps=1e-05, momentum=0.1, affine=False, track_running_stats=True)
                (4): ReLU()
                (5): Conv2d(16, 16, kernel_size=(5, 5), stride=(1, 1), padding=(2, 2), groups=16, bias=False)
                (6): Conv2d(16, 16, kernel_size=(1, 1), stride=(1, 1), bias=False)
                (7): BatchNorm2d(16, eps=1e-05, momentum=0.1, affine=False, track_running_stats=True)
              )
            )
          )
        )
        (11): MixedOp(
          (_ops): ModuleList(
            (0): Sequential(
              (0): MaxPool2d(kernel_size=3, stride=1, padding=1, dilation=1, ceil_mode=False)
              (1): BatchNorm2d(16, eps=1e-05, momentum=0.1, affine=False, track_running_stats=True)
            )
            (1): Sequential(
              (0): AvgPool2d(kernel_size=3, stride=1, padding=1)
              (1): BatchNorm2d(16, eps=1e-05, momentum=0.1, affine=False, track_running_stats=True)
            )
            (2): Identity()
            (3): SepConv(
              (op): Sequential(
                (0): ReLU()
                (1): Conv2d(16, 16, kernel_size=(3, 3), stride=(1, 1), padding=(1, 1), groups=16, bias=False)
                (2): Conv2d(16, 16, kernel_size=(1, 1), stride=(1, 1), bias=False)
                (3): BatchNorm2d(16, eps=1e-05, momentum=0.1, affine=False, track_running_stats=True)
                (4): ReLU()
                (5): Conv2d(16, 16, kernel_size=(3, 3), stride=(1, 1), padding=(1, 1), groups=16, bias=False)
                (6): Conv2d(16, 16, kernel_size=(1, 1), stride=(1, 1), bias=False)
                (7): BatchNorm2d(16, eps=1e-05, momentum=0.1, affine=False, track_running_stats=True)
              )
            )
            (4): SepConv(
              (op): Sequential(
                (0): ReLU()
                (1): Conv2d(16, 16, kernel_size=(5, 5), stride=(1, 1), padding=(2, 2), groups=16, bias=False)
                (2): Conv2d(16, 16, kernel_size=(1, 1), stride=(1, 1), bias=False)
                (3): BatchNorm2d(16, eps=1e-05, momentum=0.1, affine=False, track_running_stats=True)
                (4): ReLU()
                (5): Conv2d(16, 16, kernel_size=(5, 5), stride=(1, 1), padding=(2, 2), groups=16, bias=False)
                (6): Conv2d(16, 16, kernel_size=(1, 1), stride=(1, 1), bias=False)
                (7): BatchNorm2d(16, eps=1e-05, momentum=0.1, affine=False, track_running_stats=True)
              )
            )
          )
        )
        (12): MixedOp(
          (_ops): ModuleList(
            (0): Sequential(
              (0): MaxPool2d(kernel_size=3, stride=1, padding=1, dilation=1, ceil_mode=False)
              (1): BatchNorm2d(16, eps=1e-05, momentum=0.1, affine=False, track_running_stats=True)
            )
            (1): Sequential(
              (0): AvgPool2d(kernel_size=3, stride=1, padding=1)
              (1): BatchNorm2d(16, eps=1e-05, momentum=0.1, affine=False, track_running_stats=True)
            )
            (2): Identity()
            (3): SepConv(
              (op): Sequential(
                (0): ReLU()
                (1): Conv2d(16, 16, kernel_size=(3, 3), stride=(1, 1), padding=(1, 1), groups=16, bias=False)
                (2): Conv2d(16, 16, kernel_size=(1, 1), stride=(1, 1), bias=False)
                (3): BatchNorm2d(16, eps=1e-05, momentum=0.1, affine=False, track_running_stats=True)
                (4): ReLU()
                (5): Conv2d(16, 16, kernel_size=(3, 3), stride=(1, 1), padding=(1, 1), groups=16, bias=False)
                (6): Conv2d(16, 16, kernel_size=(1, 1), stride=(1, 1), bias=False)
                (7): BatchNorm2d(16, eps=1e-05, momentum=0.1, affine=False, track_running_stats=True)
              )
            )
            (4): SepConv(
              (op): Sequential(
                (0): ReLU()
                (1): Conv2d(16, 16, kernel_size=(5, 5), stride=(1, 1), padding=(2, 2), groups=16, bias=False)
                (2): Conv2d(16, 16, kernel_size=(1, 1), stride=(1, 1), bias=False)
                (3): BatchNorm2d(16, eps=1e-05, momentum=0.1, affine=False, track_running_stats=True)
                (4): ReLU()
                (5): Conv2d(16, 16, kernel_size=(5, 5), stride=(1, 1), padding=(2, 2), groups=16, bias=False)
                (6): Conv2d(16, 16, kernel_size=(1, 1), stride=(1, 1), bias=False)
                (7): BatchNorm2d(16, eps=1e-05, momentum=0.1, affine=False, track_running_stats=True)
              )
            )
          )
        )
        (13): MixedOp(
          (_ops): ModuleList(
            (0): Sequential(
              (0): MaxPool2d(kernel_size=3, stride=1, padding=1, dilation=1, ceil_mode=False)
              (1): BatchNorm2d(16, eps=1e-05, momentum=0.1, affine=False, track_running_stats=True)
            )
            (1): Sequential(
              (0): AvgPool2d(kernel_size=3, stride=1, padding=1)
              (1): BatchNorm2d(16, eps=1e-05, momentum=0.1, affine=False, track_running_stats=True)
            )
            (2): Identity()
            (3): SepConv(
              (op): Sequential(
                (0): ReLU()
                (1): Conv2d(16, 16, kernel_size=(3, 3), stride=(1, 1), padding=(1, 1), groups=16, bias=False)
                (2): Conv2d(16, 16, kernel_size=(1, 1), stride=(1, 1), bias=False)
                (3): BatchNorm2d(16, eps=1e-05, momentum=0.1, affine=False, track_running_stats=True)
                (4): ReLU()
                (5): Conv2d(16, 16, kernel_size=(3, 3), stride=(1, 1), padding=(1, 1), groups=16, bias=False)
                (6): Conv2d(16, 16, kernel_size=(1, 1), stride=(1, 1), bias=False)
                (7): BatchNorm2d(16, eps=1e-05, momentum=0.1, affine=False, track_running_stats=True)
              )
            )
            (4): SepConv(
              (op): Sequential(
                (0): ReLU()
                (1): Conv2d(16, 16, kernel_size=(5, 5), stride=(1, 1), padding=(2, 2), groups=16, bias=False)
                (2): Conv2d(16, 16, kernel_size=(1, 1), stride=(1, 1), bias=False)
                (3): BatchNorm2d(16, eps=1e-05, momentum=0.1, affine=False, track_running_stats=True)
                (4): ReLU()
                (5): Conv2d(16, 16, kernel_size=(5, 5), stride=(1, 1), padding=(2, 2), groups=16, bias=False)
                (6): Conv2d(16, 16, kernel_size=(1, 1), stride=(1, 1), bias=False)
                (7): BatchNorm2d(16, eps=1e-05, momentum=0.1, affine=False, track_running_stats=True)
              )
            )
          )
        )
      )
      (_bns): ModuleList()
    )
    (3): Cell(
      (preprocess0): ReLUConvBN(
        (op): Sequential(
          (0): ReLU()
          (1): Conv2d(64, 16, kernel_size=(1, 1), stride=(1, 1), bias=False)
          (2): BatchNorm2d(16, eps=1e-05, momentum=0.1, affine=False, track_running_stats=True)
        )
      )
      (preprocess1): ReLUConvBN(
        (op): Sequential(
          (0): ReLU()
          (1): Conv2d(64, 16, kernel_size=(1, 1), stride=(1, 1), bias=False)
          (2): BatchNorm2d(16, eps=1e-05, momentum=0.1, affine=False, track_running_stats=True)
        )
      )
      (_ops): ModuleList(
        (0): MixedOp(
          (_ops): ModuleList(
            (0): Sequential(
              (0): MaxPool2d(kernel_size=3, stride=1, padding=1, dilation=1, ceil_mode=False)
              (1): BatchNorm2d(16, eps=1e-05, momentum=0.1, affine=False, track_running_stats=True)
            )
            (1): Sequential(
              (0): AvgPool2d(kernel_size=3, stride=1, padding=1)
              (1): BatchNorm2d(16, eps=1e-05, momentum=0.1, affine=False, track_running_stats=True)
            )
            (2): Identity()
            (3): SepConv(
              (op): Sequential(
                (0): ReLU()
                (1): Conv2d(16, 16, kernel_size=(3, 3), stride=(1, 1), padding=(1, 1), groups=16, bias=False)
                (2): Conv2d(16, 16, kernel_size=(1, 1), stride=(1, 1), bias=False)
                (3): BatchNorm2d(16, eps=1e-05, momentum=0.1, affine=False, track_running_stats=True)
                (4): ReLU()
                (5): Conv2d(16, 16, kernel_size=(3, 3), stride=(1, 1), padding=(1, 1), groups=16, bias=False)
                (6): Conv2d(16, 16, kernel_size=(1, 1), stride=(1, 1), bias=False)
                (7): BatchNorm2d(16, eps=1e-05, momentum=0.1, affine=False, track_running_stats=True)
              )
            )
            (4): SepConv(
              (op): Sequential(
                (0): ReLU()
                (1): Conv2d(16, 16, kernel_size=(5, 5), stride=(1, 1), padding=(2, 2), groups=16, bias=False)
                (2): Conv2d(16, 16, kernel_size=(1, 1), stride=(1, 1), bias=False)
                (3): BatchNorm2d(16, eps=1e-05, momentum=0.1, affine=False, track_running_stats=True)
                (4): ReLU()
                (5): Conv2d(16, 16, kernel_size=(5, 5), stride=(1, 1), padding=(2, 2), groups=16, bias=False)
                (6): Conv2d(16, 16, kernel_size=(1, 1), stride=(1, 1), bias=False)
                (7): BatchNorm2d(16, eps=1e-05, momentum=0.1, affine=False, track_running_stats=True)
              )
            )
          )
        )
        (1): MixedOp(
          (_ops): ModuleList(
            (0): Sequential(
              (0): MaxPool2d(kernel_size=3, stride=1, padding=1, dilation=1, ceil_mode=False)
              (1): BatchNorm2d(16, eps=1e-05, momentum=0.1, affine=False, track_running_stats=True)
            )
            (1): Sequential(
              (0): AvgPool2d(kernel_size=3, stride=1, padding=1)
              (1): BatchNorm2d(16, eps=1e-05, momentum=0.1, affine=False, track_running_stats=True)
            )
            (2): Identity()
            (3): SepConv(
              (op): Sequential(
                (0): ReLU()
                (1): Conv2d(16, 16, kernel_size=(3, 3), stride=(1, 1), padding=(1, 1), groups=16, bias=False)
                (2): Conv2d(16, 16, kernel_size=(1, 1), stride=(1, 1), bias=False)
                (3): BatchNorm2d(16, eps=1e-05, momentum=0.1, affine=False, track_running_stats=True)
                (4): ReLU()
                (5): Conv2d(16, 16, kernel_size=(3, 3), stride=(1, 1), padding=(1, 1), groups=16, bias=False)
                (6): Conv2d(16, 16, kernel_size=(1, 1), stride=(1, 1), bias=False)
                (7): BatchNorm2d(16, eps=1e-05, momentum=0.1, affine=False, track_running_stats=True)
              )
            )
            (4): SepConv(
              (op): Sequential(
                (0): ReLU()
                (1): Conv2d(16, 16, kernel_size=(5, 5), stride=(1, 1), padding=(2, 2), groups=16, bias=False)
                (2): Conv2d(16, 16, kernel_size=(1, 1), stride=(1, 1), bias=False)
                (3): BatchNorm2d(16, eps=1e-05, momentum=0.1, affine=False, track_running_stats=True)
                (4): ReLU()
                (5): Conv2d(16, 16, kernel_size=(5, 5), stride=(1, 1), padding=(2, 2), groups=16, bias=False)
                (6): Conv2d(16, 16, kernel_size=(1, 1), stride=(1, 1), bias=False)
                (7): BatchNorm2d(16, eps=1e-05, momentum=0.1, affine=False, track_running_stats=True)
              )
            )
          )
        )
        (2): MixedOp(
          (_ops): ModuleList(
            (0): Sequential(
              (0): MaxPool2d(kernel_size=3, stride=1, padding=1, dilation=1, ceil_mode=False)
              (1): BatchNorm2d(16, eps=1e-05, momentum=0.1, affine=False, track_running_stats=True)
            )
            (1): Sequential(
              (0): AvgPool2d(kernel_size=3, stride=1, padding=1)
              (1): BatchNorm2d(16, eps=1e-05, momentum=0.1, affine=False, track_running_stats=True)
            )
            (2): Identity()
            (3): SepConv(
              (op): Sequential(
                (0): ReLU()
                (1): Conv2d(16, 16, kernel_size=(3, 3), stride=(1, 1), padding=(1, 1), groups=16, bias=False)
                (2): Conv2d(16, 16, kernel_size=(1, 1), stride=(1, 1), bias=False)
                (3): BatchNorm2d(16, eps=1e-05, momentum=0.1, affine=False, track_running_stats=True)
                (4): ReLU()
                (5): Conv2d(16, 16, kernel_size=(3, 3), stride=(1, 1), padding=(1, 1), groups=16, bias=False)
                (6): Conv2d(16, 16, kernel_size=(1, 1), stride=(1, 1), bias=False)
                (7): BatchNorm2d(16, eps=1e-05, momentum=0.1, affine=False, track_running_stats=True)
              )
            )
            (4): SepConv(
              (op): Sequential(
                (0): ReLU()
                (1): Conv2d(16, 16, kernel_size=(5, 5), stride=(1, 1), padding=(2, 2), groups=16, bias=False)
                (2): Conv2d(16, 16, kernel_size=(1, 1), stride=(1, 1), bias=False)
                (3): BatchNorm2d(16, eps=1e-05, momentum=0.1, affine=False, track_running_stats=True)
                (4): ReLU()
                (5): Conv2d(16, 16, kernel_size=(5, 5), stride=(1, 1), padding=(2, 2), groups=16, bias=False)
                (6): Conv2d(16, 16, kernel_size=(1, 1), stride=(1, 1), bias=False)
                (7): BatchNorm2d(16, eps=1e-05, momentum=0.1, affine=False, track_running_stats=True)
              )
            )
          )
        )
        (3): MixedOp(
          (_ops): ModuleList(
            (0): Sequential(
              (0): MaxPool2d(kernel_size=3, stride=1, padding=1, dilation=1, ceil_mode=False)
              (1): BatchNorm2d(16, eps=1e-05, momentum=0.1, affine=False, track_running_stats=True)
            )
            (1): Sequential(
              (0): AvgPool2d(kernel_size=3, stride=1, padding=1)
              (1): BatchNorm2d(16, eps=1e-05, momentum=0.1, affine=False, track_running_stats=True)
            )
            (2): Identity()
            (3): SepConv(
              (op): Sequential(
                (0): ReLU()
                (1): Conv2d(16, 16, kernel_size=(3, 3), stride=(1, 1), padding=(1, 1), groups=16, bias=False)
                (2): Conv2d(16, 16, kernel_size=(1, 1), stride=(1, 1), bias=False)
                (3): BatchNorm2d(16, eps=1e-05, momentum=0.1, affine=False, track_running_stats=True)
                (4): ReLU()
                (5): Conv2d(16, 16, kernel_size=(3, 3), stride=(1, 1), padding=(1, 1), groups=16, bias=False)
                (6): Conv2d(16, 16, kernel_size=(1, 1), stride=(1, 1), bias=False)
                (7): BatchNorm2d(16, eps=1e-05, momentum=0.1, affine=False, track_running_stats=True)
              )
            )
            (4): SepConv(
              (op): Sequential(
                (0): ReLU()
                (1): Conv2d(16, 16, kernel_size=(5, 5), stride=(1, 1), padding=(2, 2), groups=16, bias=False)
                (2): Conv2d(16, 16, kernel_size=(1, 1), stride=(1, 1), bias=False)
                (3): BatchNorm2d(16, eps=1e-05, momentum=0.1, affine=False, track_running_stats=True)
                (4): ReLU()
                (5): Conv2d(16, 16, kernel_size=(5, 5), stride=(1, 1), padding=(2, 2), groups=16, bias=False)
                (6): Conv2d(16, 16, kernel_size=(1, 1), stride=(1, 1), bias=False)
                (7): BatchNorm2d(16, eps=1e-05, momentum=0.1, affine=False, track_running_stats=True)
              )
            )
          )
        )
        (4): MixedOp(
          (_ops): ModuleList(
            (0): Sequential(
              (0): MaxPool2d(kernel_size=3, stride=1, padding=1, dilation=1, ceil_mode=False)
              (1): BatchNorm2d(16, eps=1e-05, momentum=0.1, affine=False, track_running_stats=True)
            )
            (1): Sequential(
              (0): AvgPool2d(kernel_size=3, stride=1, padding=1)
              (1): BatchNorm2d(16, eps=1e-05, momentum=0.1, affine=False, track_running_stats=True)
            )
            (2): Identity()
            (3): SepConv(
              (op): Sequential(
                (0): ReLU()
                (1): Conv2d(16, 16, kernel_size=(3, 3), stride=(1, 1), padding=(1, 1), groups=16, bias=False)
                (2): Conv2d(16, 16, kernel_size=(1, 1), stride=(1, 1), bias=False)
                (3): BatchNorm2d(16, eps=1e-05, momentum=0.1, affine=False, track_running_stats=True)
                (4): ReLU()
                (5): Conv2d(16, 16, kernel_size=(3, 3), stride=(1, 1), padding=(1, 1), groups=16, bias=False)
                (6): Conv2d(16, 16, kernel_size=(1, 1), stride=(1, 1), bias=False)
                (7): BatchNorm2d(16, eps=1e-05, momentum=0.1, affine=False, track_running_stats=True)
              )
            )
            (4): SepConv(
              (op): Sequential(
                (0): ReLU()
                (1): Conv2d(16, 16, kernel_size=(5, 5), stride=(1, 1), padding=(2, 2), groups=16, bias=False)
                (2): Conv2d(16, 16, kernel_size=(1, 1), stride=(1, 1), bias=False)
                (3): BatchNorm2d(16, eps=1e-05, momentum=0.1, affine=False, track_running_stats=True)
                (4): ReLU()
                (5): Conv2d(16, 16, kernel_size=(5, 5), stride=(1, 1), padding=(2, 2), groups=16, bias=False)
                (6): Conv2d(16, 16, kernel_size=(1, 1), stride=(1, 1), bias=False)
                (7): BatchNorm2d(16, eps=1e-05, momentum=0.1, affine=False, track_running_stats=True)
              )
            )
          )
        )
        (5): MixedOp(
          (_ops): ModuleList(
            (0): Sequential(
              (0): MaxPool2d(kernel_size=3, stride=1, padding=1, dilation=1, ceil_mode=False)
              (1): BatchNorm2d(16, eps=1e-05, momentum=0.1, affine=False, track_running_stats=True)
            )
            (1): Sequential(
              (0): AvgPool2d(kernel_size=3, stride=1, padding=1)
              (1): BatchNorm2d(16, eps=1e-05, momentum=0.1, affine=False, track_running_stats=True)
            )
            (2): Identity()
            (3): SepConv(
              (op): Sequential(
                (0): ReLU()
                (1): Conv2d(16, 16, kernel_size=(3, 3), stride=(1, 1), padding=(1, 1), groups=16, bias=False)
                (2): Conv2d(16, 16, kernel_size=(1, 1), stride=(1, 1), bias=False)
                (3): BatchNorm2d(16, eps=1e-05, momentum=0.1, affine=False, track_running_stats=True)
                (4): ReLU()
                (5): Conv2d(16, 16, kernel_size=(3, 3), stride=(1, 1), padding=(1, 1), groups=16, bias=False)
                (6): Conv2d(16, 16, kernel_size=(1, 1), stride=(1, 1), bias=False)
                (7): BatchNorm2d(16, eps=1e-05, momentum=0.1, affine=False, track_running_stats=True)
              )
            )
            (4): SepConv(
              (op): Sequential(
                (0): ReLU()
                (1): Conv2d(16, 16, kernel_size=(5, 5), stride=(1, 1), padding=(2, 2), groups=16, bias=False)
                (2): Conv2d(16, 16, kernel_size=(1, 1), stride=(1, 1), bias=False)
                (3): BatchNorm2d(16, eps=1e-05, momentum=0.1, affine=False, track_running_stats=True)
                (4): ReLU()
                (5): Conv2d(16, 16, kernel_size=(5, 5), stride=(1, 1), padding=(2, 2), groups=16, bias=False)
                (6): Conv2d(16, 16, kernel_size=(1, 1), stride=(1, 1), bias=False)
                (7): BatchNorm2d(16, eps=1e-05, momentum=0.1, affine=False, track_running_stats=True)
              )
            )
          )
        )
        (6): MixedOp(
          (_ops): ModuleList(
            (0): Sequential(
              (0): MaxPool2d(kernel_size=3, stride=1, padding=1, dilation=1, ceil_mode=False)
              (1): BatchNorm2d(16, eps=1e-05, momentum=0.1, affine=False, track_running_stats=True)
            )
            (1): Sequential(
              (0): AvgPool2d(kernel_size=3, stride=1, padding=1)
              (1): BatchNorm2d(16, eps=1e-05, momentum=0.1, affine=False, track_running_stats=True)
            )
            (2): Identity()
            (3): SepConv(
              (op): Sequential(
                (0): ReLU()
                (1): Conv2d(16, 16, kernel_size=(3, 3), stride=(1, 1), padding=(1, 1), groups=16, bias=False)
                (2): Conv2d(16, 16, kernel_size=(1, 1), stride=(1, 1), bias=False)
                (3): BatchNorm2d(16, eps=1e-05, momentum=0.1, affine=False, track_running_stats=True)
                (4): ReLU()
                (5): Conv2d(16, 16, kernel_size=(3, 3), stride=(1, 1), padding=(1, 1), groups=16, bias=False)
                (6): Conv2d(16, 16, kernel_size=(1, 1), stride=(1, 1), bias=False)
                (7): BatchNorm2d(16, eps=1e-05, momentum=0.1, affine=False, track_running_stats=True)
              )
            )
            (4): SepConv(
              (op): Sequential(
                (0): ReLU()
                (1): Conv2d(16, 16, kernel_size=(5, 5), stride=(1, 1), padding=(2, 2), groups=16, bias=False)
                (2): Conv2d(16, 16, kernel_size=(1, 1), stride=(1, 1), bias=False)
                (3): BatchNorm2d(16, eps=1e-05, momentum=0.1, affine=False, track_running_stats=True)
                (4): ReLU()
                (5): Conv2d(16, 16, kernel_size=(5, 5), stride=(1, 1), padding=(2, 2), groups=16, bias=False)
                (6): Conv2d(16, 16, kernel_size=(1, 1), stride=(1, 1), bias=False)
                (7): BatchNorm2d(16, eps=1e-05, momentum=0.1, affine=False, track_running_stats=True)
              )
            )
          )
        )
        (7): MixedOp(
          (_ops): ModuleList(
            (0): Sequential(
              (0): MaxPool2d(kernel_size=3, stride=1, padding=1, dilation=1, ceil_mode=False)
              (1): BatchNorm2d(16, eps=1e-05, momentum=0.1, affine=False, track_running_stats=True)
            )
            (1): Sequential(
              (0): AvgPool2d(kernel_size=3, stride=1, padding=1)
              (1): BatchNorm2d(16, eps=1e-05, momentum=0.1, affine=False, track_running_stats=True)
            )
            (2): Identity()
            (3): SepConv(
              (op): Sequential(
                (0): ReLU()
                (1): Conv2d(16, 16, kernel_size=(3, 3), stride=(1, 1), padding=(1, 1), groups=16, bias=False)
                (2): Conv2d(16, 16, kernel_size=(1, 1), stride=(1, 1), bias=False)
                (3): BatchNorm2d(16, eps=1e-05, momentum=0.1, affine=False, track_running_stats=True)
                (4): ReLU()
                (5): Conv2d(16, 16, kernel_size=(3, 3), stride=(1, 1), padding=(1, 1), groups=16, bias=False)
                (6): Conv2d(16, 16, kernel_size=(1, 1), stride=(1, 1), bias=False)
                (7): BatchNorm2d(16, eps=1e-05, momentum=0.1, affine=False, track_running_stats=True)
              )
            )
            (4): SepConv(
              (op): Sequential(
                (0): ReLU()
                (1): Conv2d(16, 16, kernel_size=(5, 5), stride=(1, 1), padding=(2, 2), groups=16, bias=False)
                (2): Conv2d(16, 16, kernel_size=(1, 1), stride=(1, 1), bias=False)
                (3): BatchNorm2d(16, eps=1e-05, momentum=0.1, affine=False, track_running_stats=True)
                (4): ReLU()
                (5): Conv2d(16, 16, kernel_size=(5, 5), stride=(1, 1), padding=(2, 2), groups=16, bias=False)
                (6): Conv2d(16, 16, kernel_size=(1, 1), stride=(1, 1), bias=False)
                (7): BatchNorm2d(16, eps=1e-05, momentum=0.1, affine=False, track_running_stats=True)
              )
            )
          )
        )
        (8): MixedOp(
          (_ops): ModuleList(
            (0): Sequential(
              (0): MaxPool2d(kernel_size=3, stride=1, padding=1, dilation=1, ceil_mode=False)
              (1): BatchNorm2d(16, eps=1e-05, momentum=0.1, affine=False, track_running_stats=True)
            )
            (1): Sequential(
              (0): AvgPool2d(kernel_size=3, stride=1, padding=1)
              (1): BatchNorm2d(16, eps=1e-05, momentum=0.1, affine=False, track_running_stats=True)
            )
            (2): Identity()
            (3): SepConv(
              (op): Sequential(
                (0): ReLU()
                (1): Conv2d(16, 16, kernel_size=(3, 3), stride=(1, 1), padding=(1, 1), groups=16, bias=False)
                (2): Conv2d(16, 16, kernel_size=(1, 1), stride=(1, 1), bias=False)
                (3): BatchNorm2d(16, eps=1e-05, momentum=0.1, affine=False, track_running_stats=True)
                (4): ReLU()
                (5): Conv2d(16, 16, kernel_size=(3, 3), stride=(1, 1), padding=(1, 1), groups=16, bias=False)
                (6): Conv2d(16, 16, kernel_size=(1, 1), stride=(1, 1), bias=False)
                (7): BatchNorm2d(16, eps=1e-05, momentum=0.1, affine=False, track_running_stats=True)
              )
            )
            (4): SepConv(
              (op): Sequential(
                (0): ReLU()
                (1): Conv2d(16, 16, kernel_size=(5, 5), stride=(1, 1), padding=(2, 2), groups=16, bias=False)
                (2): Conv2d(16, 16, kernel_size=(1, 1), stride=(1, 1), bias=False)
                (3): BatchNorm2d(16, eps=1e-05, momentum=0.1, affine=False, track_running_stats=True)
                (4): ReLU()
                (5): Conv2d(16, 16, kernel_size=(5, 5), stride=(1, 1), padding=(2, 2), groups=16, bias=False)
                (6): Conv2d(16, 16, kernel_size=(1, 1), stride=(1, 1), bias=False)
                (7): BatchNorm2d(16, eps=1e-05, momentum=0.1, affine=False, track_running_stats=True)
              )
            )
          )
        )
        (9): MixedOp(
          (_ops): ModuleList(
            (0): Sequential(
              (0): MaxPool2d(kernel_size=3, stride=1, padding=1, dilation=1, ceil_mode=False)
              (1): BatchNorm2d(16, eps=1e-05, momentum=0.1, affine=False, track_running_stats=True)
            )
            (1): Sequential(
              (0): AvgPool2d(kernel_size=3, stride=1, padding=1)
              (1): BatchNorm2d(16, eps=1e-05, momentum=0.1, affine=False, track_running_stats=True)
            )
            (2): Identity()
            (3): SepConv(
              (op): Sequential(
                (0): ReLU()
                (1): Conv2d(16, 16, kernel_size=(3, 3), stride=(1, 1), padding=(1, 1), groups=16, bias=False)
                (2): Conv2d(16, 16, kernel_size=(1, 1), stride=(1, 1), bias=False)
                (3): BatchNorm2d(16, eps=1e-05, momentum=0.1, affine=False, track_running_stats=True)
                (4): ReLU()
                (5): Conv2d(16, 16, kernel_size=(3, 3), stride=(1, 1), padding=(1, 1), groups=16, bias=False)
                (6): Conv2d(16, 16, kernel_size=(1, 1), stride=(1, 1), bias=False)
                (7): BatchNorm2d(16, eps=1e-05, momentum=0.1, affine=False, track_running_stats=True)
              )
            )
            (4): SepConv(
              (op): Sequential(
                (0): ReLU()
                (1): Conv2d(16, 16, kernel_size=(5, 5), stride=(1, 1), padding=(2, 2), groups=16, bias=False)
                (2): Conv2d(16, 16, kernel_size=(1, 1), stride=(1, 1), bias=False)
                (3): BatchNorm2d(16, eps=1e-05, momentum=0.1, affine=False, track_running_stats=True)
                (4): ReLU()
                (5): Conv2d(16, 16, kernel_size=(5, 5), stride=(1, 1), padding=(2, 2), groups=16, bias=False)
                (6): Conv2d(16, 16, kernel_size=(1, 1), stride=(1, 1), bias=False)
                (7): BatchNorm2d(16, eps=1e-05, momentum=0.1, affine=False, track_running_stats=True)
              )
            )
          )
        )
        (10): MixedOp(
          (_ops): ModuleList(
            (0): Sequential(
              (0): MaxPool2d(kernel_size=3, stride=1, padding=1, dilation=1, ceil_mode=False)
              (1): BatchNorm2d(16, eps=1e-05, momentum=0.1, affine=False, track_running_stats=True)
            )
            (1): Sequential(
              (0): AvgPool2d(kernel_size=3, stride=1, padding=1)
              (1): BatchNorm2d(16, eps=1e-05, momentum=0.1, affine=False, track_running_stats=True)
            )
            (2): Identity()
            (3): SepConv(
              (op): Sequential(
                (0): ReLU()
                (1): Conv2d(16, 16, kernel_size=(3, 3), stride=(1, 1), padding=(1, 1), groups=16, bias=False)
                (2): Conv2d(16, 16, kernel_size=(1, 1), stride=(1, 1), bias=False)
                (3): BatchNorm2d(16, eps=1e-05, momentum=0.1, affine=False, track_running_stats=True)
                (4): ReLU()
                (5): Conv2d(16, 16, kernel_size=(3, 3), stride=(1, 1), padding=(1, 1), groups=16, bias=False)
                (6): Conv2d(16, 16, kernel_size=(1, 1), stride=(1, 1), bias=False)
                (7): BatchNorm2d(16, eps=1e-05, momentum=0.1, affine=False, track_running_stats=True)
              )
            )
            (4): SepConv(
              (op): Sequential(
                (0): ReLU()
                (1): Conv2d(16, 16, kernel_size=(5, 5), stride=(1, 1), padding=(2, 2), groups=16, bias=False)
                (2): Conv2d(16, 16, kernel_size=(1, 1), stride=(1, 1), bias=False)
                (3): BatchNorm2d(16, eps=1e-05, momentum=0.1, affine=False, track_running_stats=True)
                (4): ReLU()
                (5): Conv2d(16, 16, kernel_size=(5, 5), stride=(1, 1), padding=(2, 2), groups=16, bias=False)
                (6): Conv2d(16, 16, kernel_size=(1, 1), stride=(1, 1), bias=False)
                (7): BatchNorm2d(16, eps=1e-05, momentum=0.1, affine=False, track_running_stats=True)
              )
            )
          )
        )
        (11): MixedOp(
          (_ops): ModuleList(
            (0): Sequential(
              (0): MaxPool2d(kernel_size=3, stride=1, padding=1, dilation=1, ceil_mode=False)
              (1): BatchNorm2d(16, eps=1e-05, momentum=0.1, affine=False, track_running_stats=True)
            )
            (1): Sequential(
              (0): AvgPool2d(kernel_size=3, stride=1, padding=1)
              (1): BatchNorm2d(16, eps=1e-05, momentum=0.1, affine=False, track_running_stats=True)
            )
            (2): Identity()
            (3): SepConv(
              (op): Sequential(
                (0): ReLU()
                (1): Conv2d(16, 16, kernel_size=(3, 3), stride=(1, 1), padding=(1, 1), groups=16, bias=False)
                (2): Conv2d(16, 16, kernel_size=(1, 1), stride=(1, 1), bias=False)
                (3): BatchNorm2d(16, eps=1e-05, momentum=0.1, affine=False, track_running_stats=True)
                (4): ReLU()
                (5): Conv2d(16, 16, kernel_size=(3, 3), stride=(1, 1), padding=(1, 1), groups=16, bias=False)
                (6): Conv2d(16, 16, kernel_size=(1, 1), stride=(1, 1), bias=False)
                (7): BatchNorm2d(16, eps=1e-05, momentum=0.1, affine=False, track_running_stats=True)
              )
            )
            (4): SepConv(
              (op): Sequential(
                (0): ReLU()
                (1): Conv2d(16, 16, kernel_size=(5, 5), stride=(1, 1), padding=(2, 2), groups=16, bias=False)
                (2): Conv2d(16, 16, kernel_size=(1, 1), stride=(1, 1), bias=False)
                (3): BatchNorm2d(16, eps=1e-05, momentum=0.1, affine=False, track_running_stats=True)
                (4): ReLU()
                (5): Conv2d(16, 16, kernel_size=(5, 5), stride=(1, 1), padding=(2, 2), groups=16, bias=False)
                (6): Conv2d(16, 16, kernel_size=(1, 1), stride=(1, 1), bias=False)
                (7): BatchNorm2d(16, eps=1e-05, momentum=0.1, affine=False, track_running_stats=True)
              )
            )
          )
        )
        (12): MixedOp(
          (_ops): ModuleList(
            (0): Sequential(
              (0): MaxPool2d(kernel_size=3, stride=1, padding=1, dilation=1, ceil_mode=False)
              (1): BatchNorm2d(16, eps=1e-05, momentum=0.1, affine=False, track_running_stats=True)
            )
            (1): Sequential(
              (0): AvgPool2d(kernel_size=3, stride=1, padding=1)
              (1): BatchNorm2d(16, eps=1e-05, momentum=0.1, affine=False, track_running_stats=True)
            )
            (2): Identity()
            (3): SepConv(
              (op): Sequential(
                (0): ReLU()
                (1): Conv2d(16, 16, kernel_size=(3, 3), stride=(1, 1), padding=(1, 1), groups=16, bias=False)
                (2): Conv2d(16, 16, kernel_size=(1, 1), stride=(1, 1), bias=False)
                (3): BatchNorm2d(16, eps=1e-05, momentum=0.1, affine=False, track_running_stats=True)
                (4): ReLU()
                (5): Conv2d(16, 16, kernel_size=(3, 3), stride=(1, 1), padding=(1, 1), groups=16, bias=False)
                (6): Conv2d(16, 16, kernel_size=(1, 1), stride=(1, 1), bias=False)
                (7): BatchNorm2d(16, eps=1e-05, momentum=0.1, affine=False, track_running_stats=True)
              )
            )
            (4): SepConv(
              (op): Sequential(
                (0): ReLU()
                (1): Conv2d(16, 16, kernel_size=(5, 5), stride=(1, 1), padding=(2, 2), groups=16, bias=False)
                (2): Conv2d(16, 16, kernel_size=(1, 1), stride=(1, 1), bias=False)
                (3): BatchNorm2d(16, eps=1e-05, momentum=0.1, affine=False, track_running_stats=True)
                (4): ReLU()
                (5): Conv2d(16, 16, kernel_size=(5, 5), stride=(1, 1), padding=(2, 2), groups=16, bias=False)
                (6): Conv2d(16, 16, kernel_size=(1, 1), stride=(1, 1), bias=False)
                (7): BatchNorm2d(16, eps=1e-05, momentum=0.1, affine=False, track_running_stats=True)
              )
            )
          )
        )
        (13): MixedOp(
          (_ops): ModuleList(
            (0): Sequential(
              (0): MaxPool2d(kernel_size=3, stride=1, padding=1, dilation=1, ceil_mode=False)
              (1): BatchNorm2d(16, eps=1e-05, momentum=0.1, affine=False, track_running_stats=True)
            )
            (1): Sequential(
              (0): AvgPool2d(kernel_size=3, stride=1, padding=1)
              (1): BatchNorm2d(16, eps=1e-05, momentum=0.1, affine=False, track_running_stats=True)
            )
            (2): Identity()
            (3): SepConv(
              (op): Sequential(
                (0): ReLU()
                (1): Conv2d(16, 16, kernel_size=(3, 3), stride=(1, 1), padding=(1, 1), groups=16, bias=False)
                (2): Conv2d(16, 16, kernel_size=(1, 1), stride=(1, 1), bias=False)
                (3): BatchNorm2d(16, eps=1e-05, momentum=0.1, affine=False, track_running_stats=True)
                (4): ReLU()
                (5): Conv2d(16, 16, kernel_size=(3, 3), stride=(1, 1), padding=(1, 1), groups=16, bias=False)
                (6): Conv2d(16, 16, kernel_size=(1, 1), stride=(1, 1), bias=False)
                (7): BatchNorm2d(16, eps=1e-05, momentum=0.1, affine=False, track_running_stats=True)
              )
            )
            (4): SepConv(
              (op): Sequential(
                (0): ReLU()
                (1): Conv2d(16, 16, kernel_size=(5, 5), stride=(1, 1), padding=(2, 2), groups=16, bias=False)
                (2): Conv2d(16, 16, kernel_size=(1, 1), stride=(1, 1), bias=False)
                (3): BatchNorm2d(16, eps=1e-05, momentum=0.1, affine=False, track_running_stats=True)
                (4): ReLU()
                (5): Conv2d(16, 16, kernel_size=(5, 5), stride=(1, 1), padding=(2, 2), groups=16, bias=False)
                (6): Conv2d(16, 16, kernel_size=(1, 1), stride=(1, 1), bias=False)
                (7): BatchNorm2d(16, eps=1e-05, momentum=0.1, affine=False, track_running_stats=True)
              )
            )
          )
        )
      )
      (_bns): ModuleList()
    )
    (4): Cell(
      (preprocess0): ReLUConvBN(
        (op): Sequential(
          (0): ReLU()
          (1): Conv2d(64, 32, kernel_size=(1, 1), stride=(1, 1), bias=False)
          (2): BatchNorm2d(32, eps=1e-05, momentum=0.1, affine=False, track_running_stats=True)
        )
      )
      (preprocess1): ReLUConvBN(
        (op): Sequential(
          (0): ReLU()
          (1): Conv2d(64, 32, kernel_size=(1, 1), stride=(1, 1), bias=False)
          (2): BatchNorm2d(32, eps=1e-05, momentum=0.1, affine=False, track_running_stats=True)
        )
      )
      (_ops): ModuleList(
        (0): MixedOp(
          (_ops): ModuleList(
            (0): Sequential(
              (0): MaxPool2d(kernel_size=3, stride=2, padding=1, dilation=1, ceil_mode=False)
              (1): BatchNorm2d(32, eps=1e-05, momentum=0.1, affine=False, track_running_stats=True)
            )
            (1): Sequential(
              (0): AvgPool2d(kernel_size=3, stride=2, padding=1)
              (1): BatchNorm2d(32, eps=1e-05, momentum=0.1, affine=False, track_running_stats=True)
            )
            (2): FactorizedReduce(
              (relu): ReLU()
              (conv_1): Conv2d(32, 16, kernel_size=(1, 1), stride=(2, 2), bias=False)
              (conv_2): Conv2d(32, 16, kernel_size=(1, 1), stride=(2, 2), bias=False)
              (bn): BatchNorm2d(32, eps=1e-05, momentum=0.1, affine=False, track_running_stats=True)
            )
            (3): SepConv(
              (op): Sequential(
                (0): ReLU()
                (1): Conv2d(32, 32, kernel_size=(3, 3), stride=(2, 2), padding=(1, 1), groups=32, bias=False)
                (2): Conv2d(32, 32, kernel_size=(1, 1), stride=(1, 1), bias=False)
                (3): BatchNorm2d(32, eps=1e-05, momentum=0.1, affine=False, track_running_stats=True)
                (4): ReLU()
                (5): Conv2d(32, 32, kernel_size=(3, 3), stride=(1, 1), padding=(1, 1), groups=32, bias=False)
                (6): Conv2d(32, 32, kernel_size=(1, 1), stride=(1, 1), bias=False)
                (7): BatchNorm2d(32, eps=1e-05, momentum=0.1, affine=False, track_running_stats=True)
              )
            )
            (4): SepConv(
              (op): Sequential(
                (0): ReLU()
                (1): Conv2d(32, 32, kernel_size=(5, 5), stride=(2, 2), padding=(2, 2), groups=32, bias=False)
                (2): Conv2d(32, 32, kernel_size=(1, 1), stride=(1, 1), bias=False)
                (3): BatchNorm2d(32, eps=1e-05, momentum=0.1, affine=False, track_running_stats=True)
                (4): ReLU()
                (5): Conv2d(32, 32, kernel_size=(5, 5), stride=(1, 1), padding=(2, 2), groups=32, bias=False)
                (6): Conv2d(32, 32, kernel_size=(1, 1), stride=(1, 1), bias=False)
                (7): BatchNorm2d(32, eps=1e-05, momentum=0.1, affine=False, track_running_stats=True)
              )
            )
          )
        )
        (1): MixedOp(
          (_ops): ModuleList(
            (0): Sequential(
              (0): MaxPool2d(kernel_size=3, stride=2, padding=1, dilation=1, ceil_mode=False)
              (1): BatchNorm2d(32, eps=1e-05, momentum=0.1, affine=False, track_running_stats=True)
            )
            (1): Sequential(
              (0): AvgPool2d(kernel_size=3, stride=2, padding=1)
              (1): BatchNorm2d(32, eps=1e-05, momentum=0.1, affine=False, track_running_stats=True)
            )
            (2): FactorizedReduce(
              (relu): ReLU()
              (conv_1): Conv2d(32, 16, kernel_size=(1, 1), stride=(2, 2), bias=False)
              (conv_2): Conv2d(32, 16, kernel_size=(1, 1), stride=(2, 2), bias=False)
              (bn): BatchNorm2d(32, eps=1e-05, momentum=0.1, affine=False, track_running_stats=True)
            )
            (3): SepConv(
              (op): Sequential(
                (0): ReLU()
                (1): Conv2d(32, 32, kernel_size=(3, 3), stride=(2, 2), padding=(1, 1), groups=32, bias=False)
                (2): Conv2d(32, 32, kernel_size=(1, 1), stride=(1, 1), bias=False)
                (3): BatchNorm2d(32, eps=1e-05, momentum=0.1, affine=False, track_running_stats=True)
                (4): ReLU()
                (5): Conv2d(32, 32, kernel_size=(3, 3), stride=(1, 1), padding=(1, 1), groups=32, bias=False)
                (6): Conv2d(32, 32, kernel_size=(1, 1), stride=(1, 1), bias=False)
                (7): BatchNorm2d(32, eps=1e-05, momentum=0.1, affine=False, track_running_stats=True)
              )
            )
            (4): SepConv(
              (op): Sequential(
                (0): ReLU()
                (1): Conv2d(32, 32, kernel_size=(5, 5), stride=(2, 2), padding=(2, 2), groups=32, bias=False)
                (2): Conv2d(32, 32, kernel_size=(1, 1), stride=(1, 1), bias=False)
                (3): BatchNorm2d(32, eps=1e-05, momentum=0.1, affine=False, track_running_stats=True)
                (4): ReLU()
                (5): Conv2d(32, 32, kernel_size=(5, 5), stride=(1, 1), padding=(2, 2), groups=32, bias=False)
                (6): Conv2d(32, 32, kernel_size=(1, 1), stride=(1, 1), bias=False)
                (7): BatchNorm2d(32, eps=1e-05, momentum=0.1, affine=False, track_running_stats=True)
              )
            )
          )
        )
        (2): MixedOp(
          (_ops): ModuleList(
            (0): Sequential(
              (0): MaxPool2d(kernel_size=3, stride=2, padding=1, dilation=1, ceil_mode=False)
              (1): BatchNorm2d(32, eps=1e-05, momentum=0.1, affine=False, track_running_stats=True)
            )
            (1): Sequential(
              (0): AvgPool2d(kernel_size=3, stride=2, padding=1)
              (1): BatchNorm2d(32, eps=1e-05, momentum=0.1, affine=False, track_running_stats=True)
            )
            (2): FactorizedReduce(
              (relu): ReLU()
              (conv_1): Conv2d(32, 16, kernel_size=(1, 1), stride=(2, 2), bias=False)
              (conv_2): Conv2d(32, 16, kernel_size=(1, 1), stride=(2, 2), bias=False)
              (bn): BatchNorm2d(32, eps=1e-05, momentum=0.1, affine=False, track_running_stats=True)
            )
            (3): SepConv(
              (op): Sequential(
                (0): ReLU()
                (1): Conv2d(32, 32, kernel_size=(3, 3), stride=(2, 2), padding=(1, 1), groups=32, bias=False)
                (2): Conv2d(32, 32, kernel_size=(1, 1), stride=(1, 1), bias=False)
                (3): BatchNorm2d(32, eps=1e-05, momentum=0.1, affine=False, track_running_stats=True)
                (4): ReLU()
                (5): Conv2d(32, 32, kernel_size=(3, 3), stride=(1, 1), padding=(1, 1), groups=32, bias=False)
                (6): Conv2d(32, 32, kernel_size=(1, 1), stride=(1, 1), bias=False)
                (7): BatchNorm2d(32, eps=1e-05, momentum=0.1, affine=False, track_running_stats=True)
              )
            )
            (4): SepConv(
              (op): Sequential(
                (0): ReLU()
                (1): Conv2d(32, 32, kernel_size=(5, 5), stride=(2, 2), padding=(2, 2), groups=32, bias=False)
                (2): Conv2d(32, 32, kernel_size=(1, 1), stride=(1, 1), bias=False)
                (3): BatchNorm2d(32, eps=1e-05, momentum=0.1, affine=False, track_running_stats=True)
                (4): ReLU()
                (5): Conv2d(32, 32, kernel_size=(5, 5), stride=(1, 1), padding=(2, 2), groups=32, bias=False)
                (6): Conv2d(32, 32, kernel_size=(1, 1), stride=(1, 1), bias=False)
                (7): BatchNorm2d(32, eps=1e-05, momentum=0.1, affine=False, track_running_stats=True)
              )
            )
          )
        )
        (3): MixedOp(
          (_ops): ModuleList(
            (0): Sequential(
              (0): MaxPool2d(kernel_size=3, stride=2, padding=1, dilation=1, ceil_mode=False)
              (1): BatchNorm2d(32, eps=1e-05, momentum=0.1, affine=False, track_running_stats=True)
            )
            (1): Sequential(
              (0): AvgPool2d(kernel_size=3, stride=2, padding=1)
              (1): BatchNorm2d(32, eps=1e-05, momentum=0.1, affine=False, track_running_stats=True)
            )
            (2): FactorizedReduce(
              (relu): ReLU()
              (conv_1): Conv2d(32, 16, kernel_size=(1, 1), stride=(2, 2), bias=False)
              (conv_2): Conv2d(32, 16, kernel_size=(1, 1), stride=(2, 2), bias=False)
              (bn): BatchNorm2d(32, eps=1e-05, momentum=0.1, affine=False, track_running_stats=True)
            )
            (3): SepConv(
              (op): Sequential(
                (0): ReLU()
                (1): Conv2d(32, 32, kernel_size=(3, 3), stride=(2, 2), padding=(1, 1), groups=32, bias=False)
                (2): Conv2d(32, 32, kernel_size=(1, 1), stride=(1, 1), bias=False)
                (3): BatchNorm2d(32, eps=1e-05, momentum=0.1, affine=False, track_running_stats=True)
                (4): ReLU()
                (5): Conv2d(32, 32, kernel_size=(3, 3), stride=(1, 1), padding=(1, 1), groups=32, bias=False)
                (6): Conv2d(32, 32, kernel_size=(1, 1), stride=(1, 1), bias=False)
                (7): BatchNorm2d(32, eps=1e-05, momentum=0.1, affine=False, track_running_stats=True)
              )
            )
            (4): SepConv(
              (op): Sequential(
                (0): ReLU()
                (1): Conv2d(32, 32, kernel_size=(5, 5), stride=(2, 2), padding=(2, 2), groups=32, bias=False)
                (2): Conv2d(32, 32, kernel_size=(1, 1), stride=(1, 1), bias=False)
                (3): BatchNorm2d(32, eps=1e-05, momentum=0.1, affine=False, track_running_stats=True)
                (4): ReLU()
                (5): Conv2d(32, 32, kernel_size=(5, 5), stride=(1, 1), padding=(2, 2), groups=32, bias=False)
                (6): Conv2d(32, 32, kernel_size=(1, 1), stride=(1, 1), bias=False)
                (7): BatchNorm2d(32, eps=1e-05, momentum=0.1, affine=False, track_running_stats=True)
              )
            )
          )
        )
        (4): MixedOp(
          (_ops): ModuleList(
            (0): Sequential(
              (0): MaxPool2d(kernel_size=3, stride=1, padding=1, dilation=1, ceil_mode=False)
              (1): BatchNorm2d(32, eps=1e-05, momentum=0.1, affine=False, track_running_stats=True)
            )
            (1): Sequential(
              (0): AvgPool2d(kernel_size=3, stride=1, padding=1)
              (1): BatchNorm2d(32, eps=1e-05, momentum=0.1, affine=False, track_running_stats=True)
            )
            (2): Identity()
            (3): SepConv(
              (op): Sequential(
                (0): ReLU()
                (1): Conv2d(32, 32, kernel_size=(3, 3), stride=(1, 1), padding=(1, 1), groups=32, bias=False)
                (2): Conv2d(32, 32, kernel_size=(1, 1), stride=(1, 1), bias=False)
                (3): BatchNorm2d(32, eps=1e-05, momentum=0.1, affine=False, track_running_stats=True)
                (4): ReLU()
                (5): Conv2d(32, 32, kernel_size=(3, 3), stride=(1, 1), padding=(1, 1), groups=32, bias=False)
                (6): Conv2d(32, 32, kernel_size=(1, 1), stride=(1, 1), bias=False)
                (7): BatchNorm2d(32, eps=1e-05, momentum=0.1, affine=False, track_running_stats=True)
              )
            )
            (4): SepConv(
              (op): Sequential(
                (0): ReLU()
                (1): Conv2d(32, 32, kernel_size=(5, 5), stride=(1, 1), padding=(2, 2), groups=32, bias=False)
                (2): Conv2d(32, 32, kernel_size=(1, 1), stride=(1, 1), bias=False)
                (3): BatchNorm2d(32, eps=1e-05, momentum=0.1, affine=False, track_running_stats=True)
                (4): ReLU()
                (5): Conv2d(32, 32, kernel_size=(5, 5), stride=(1, 1), padding=(2, 2), groups=32, bias=False)
                (6): Conv2d(32, 32, kernel_size=(1, 1), stride=(1, 1), bias=False)
                (7): BatchNorm2d(32, eps=1e-05, momentum=0.1, affine=False, track_running_stats=True)
              )
            )
          )
        )
        (5): MixedOp(
          (_ops): ModuleList(
            (0): Sequential(
              (0): MaxPool2d(kernel_size=3, stride=2, padding=1, dilation=1, ceil_mode=False)
              (1): BatchNorm2d(32, eps=1e-05, momentum=0.1, affine=False, track_running_stats=True)
            )
            (1): Sequential(
              (0): AvgPool2d(kernel_size=3, stride=2, padding=1)
              (1): BatchNorm2d(32, eps=1e-05, momentum=0.1, affine=False, track_running_stats=True)
            )
            (2): FactorizedReduce(
              (relu): ReLU()
              (conv_1): Conv2d(32, 16, kernel_size=(1, 1), stride=(2, 2), bias=False)
              (conv_2): Conv2d(32, 16, kernel_size=(1, 1), stride=(2, 2), bias=False)
              (bn): BatchNorm2d(32, eps=1e-05, momentum=0.1, affine=False, track_running_stats=True)
            )
            (3): SepConv(
              (op): Sequential(
                (0): ReLU()
                (1): Conv2d(32, 32, kernel_size=(3, 3), stride=(2, 2), padding=(1, 1), groups=32, bias=False)
                (2): Conv2d(32, 32, kernel_size=(1, 1), stride=(1, 1), bias=False)
                (3): BatchNorm2d(32, eps=1e-05, momentum=0.1, affine=False, track_running_stats=True)
                (4): ReLU()
                (5): Conv2d(32, 32, kernel_size=(3, 3), stride=(1, 1), padding=(1, 1), groups=32, bias=False)
                (6): Conv2d(32, 32, kernel_size=(1, 1), stride=(1, 1), bias=False)
                (7): BatchNorm2d(32, eps=1e-05, momentum=0.1, affine=False, track_running_stats=True)
              )
            )
            (4): SepConv(
              (op): Sequential(
                (0): ReLU()
                (1): Conv2d(32, 32, kernel_size=(5, 5), stride=(2, 2), padding=(2, 2), groups=32, bias=False)
                (2): Conv2d(32, 32, kernel_size=(1, 1), stride=(1, 1), bias=False)
                (3): BatchNorm2d(32, eps=1e-05, momentum=0.1, affine=False, track_running_stats=True)
                (4): ReLU()
                (5): Conv2d(32, 32, kernel_size=(5, 5), stride=(1, 1), padding=(2, 2), groups=32, bias=False)
                (6): Conv2d(32, 32, kernel_size=(1, 1), stride=(1, 1), bias=False)
                (7): BatchNorm2d(32, eps=1e-05, momentum=0.1, affine=False, track_running_stats=True)
              )
            )
          )
        )
        (6): MixedOp(
          (_ops): ModuleList(
            (0): Sequential(
              (0): MaxPool2d(kernel_size=3, stride=2, padding=1, dilation=1, ceil_mode=False)
              (1): BatchNorm2d(32, eps=1e-05, momentum=0.1, affine=False, track_running_stats=True)
            )
            (1): Sequential(
              (0): AvgPool2d(kernel_size=3, stride=2, padding=1)
              (1): BatchNorm2d(32, eps=1e-05, momentum=0.1, affine=False, track_running_stats=True)
            )
            (2): FactorizedReduce(
              (relu): ReLU()
              (conv_1): Conv2d(32, 16, kernel_size=(1, 1), stride=(2, 2), bias=False)
              (conv_2): Conv2d(32, 16, kernel_size=(1, 1), stride=(2, 2), bias=False)
              (bn): BatchNorm2d(32, eps=1e-05, momentum=0.1, affine=False, track_running_stats=True)
            )
            (3): SepConv(
              (op): Sequential(
                (0): ReLU()
                (1): Conv2d(32, 32, kernel_size=(3, 3), stride=(2, 2), padding=(1, 1), groups=32, bias=False)
                (2): Conv2d(32, 32, kernel_size=(1, 1), stride=(1, 1), bias=False)
                (3): BatchNorm2d(32, eps=1e-05, momentum=0.1, affine=False, track_running_stats=True)
                (4): ReLU()
                (5): Conv2d(32, 32, kernel_size=(3, 3), stride=(1, 1), padding=(1, 1), groups=32, bias=False)
                (6): Conv2d(32, 32, kernel_size=(1, 1), stride=(1, 1), bias=False)
                (7): BatchNorm2d(32, eps=1e-05, momentum=0.1, affine=False, track_running_stats=True)
              )
            )
            (4): SepConv(
              (op): Sequential(
                (0): ReLU()
                (1): Conv2d(32, 32, kernel_size=(5, 5), stride=(2, 2), padding=(2, 2), groups=32, bias=False)
                (2): Conv2d(32, 32, kernel_size=(1, 1), stride=(1, 1), bias=False)
                (3): BatchNorm2d(32, eps=1e-05, momentum=0.1, affine=False, track_running_stats=True)
                (4): ReLU()
                (5): Conv2d(32, 32, kernel_size=(5, 5), stride=(1, 1), padding=(2, 2), groups=32, bias=False)
                (6): Conv2d(32, 32, kernel_size=(1, 1), stride=(1, 1), bias=False)
                (7): BatchNorm2d(32, eps=1e-05, momentum=0.1, affine=False, track_running_stats=True)
              )
            )
          )
        )
        (7): MixedOp(
          (_ops): ModuleList(
            (0): Sequential(
              (0): MaxPool2d(kernel_size=3, stride=1, padding=1, dilation=1, ceil_mode=False)
              (1): BatchNorm2d(32, eps=1e-05, momentum=0.1, affine=False, track_running_stats=True)
            )
            (1): Sequential(
              (0): AvgPool2d(kernel_size=3, stride=1, padding=1)
              (1): BatchNorm2d(32, eps=1e-05, momentum=0.1, affine=False, track_running_stats=True)
            )
            (2): Identity()
            (3): SepConv(
              (op): Sequential(
                (0): ReLU()
                (1): Conv2d(32, 32, kernel_size=(3, 3), stride=(1, 1), padding=(1, 1), groups=32, bias=False)
                (2): Conv2d(32, 32, kernel_size=(1, 1), stride=(1, 1), bias=False)
                (3): BatchNorm2d(32, eps=1e-05, momentum=0.1, affine=False, track_running_stats=True)
                (4): ReLU()
                (5): Conv2d(32, 32, kernel_size=(3, 3), stride=(1, 1), padding=(1, 1), groups=32, bias=False)
                (6): Conv2d(32, 32, kernel_size=(1, 1), stride=(1, 1), bias=False)
                (7): BatchNorm2d(32, eps=1e-05, momentum=0.1, affine=False, track_running_stats=True)
              )
            )
            (4): SepConv(
              (op): Sequential(
                (0): ReLU()
                (1): Conv2d(32, 32, kernel_size=(5, 5), stride=(1, 1), padding=(2, 2), groups=32, bias=False)
                (2): Conv2d(32, 32, kernel_size=(1, 1), stride=(1, 1), bias=False)
                (3): BatchNorm2d(32, eps=1e-05, momentum=0.1, affine=False, track_running_stats=True)
                (4): ReLU()
                (5): Conv2d(32, 32, kernel_size=(5, 5), stride=(1, 1), padding=(2, 2), groups=32, bias=False)
                (6): Conv2d(32, 32, kernel_size=(1, 1), stride=(1, 1), bias=False)
                (7): BatchNorm2d(32, eps=1e-05, momentum=0.1, affine=False, track_running_stats=True)
              )
            )
          )
        )
        (8): MixedOp(
          (_ops): ModuleList(
            (0): Sequential(
              (0): MaxPool2d(kernel_size=3, stride=1, padding=1, dilation=1, ceil_mode=False)
              (1): BatchNorm2d(32, eps=1e-05, momentum=0.1, affine=False, track_running_stats=True)
            )
            (1): Sequential(
              (0): AvgPool2d(kernel_size=3, stride=1, padding=1)
              (1): BatchNorm2d(32, eps=1e-05, momentum=0.1, affine=False, track_running_stats=True)
            )
            (2): Identity()
            (3): SepConv(
              (op): Sequential(
                (0): ReLU()
                (1): Conv2d(32, 32, kernel_size=(3, 3), stride=(1, 1), padding=(1, 1), groups=32, bias=False)
                (2): Conv2d(32, 32, kernel_size=(1, 1), stride=(1, 1), bias=False)
                (3): BatchNorm2d(32, eps=1e-05, momentum=0.1, affine=False, track_running_stats=True)
                (4): ReLU()
                (5): Conv2d(32, 32, kernel_size=(3, 3), stride=(1, 1), padding=(1, 1), groups=32, bias=False)
                (6): Conv2d(32, 32, kernel_size=(1, 1), stride=(1, 1), bias=False)
                (7): BatchNorm2d(32, eps=1e-05, momentum=0.1, affine=False, track_running_stats=True)
              )
            )
            (4): SepConv(
              (op): Sequential(
                (0): ReLU()
                (1): Conv2d(32, 32, kernel_size=(5, 5), stride=(1, 1), padding=(2, 2), groups=32, bias=False)
                (2): Conv2d(32, 32, kernel_size=(1, 1), stride=(1, 1), bias=False)
                (3): BatchNorm2d(32, eps=1e-05, momentum=0.1, affine=False, track_running_stats=True)
                (4): ReLU()
                (5): Conv2d(32, 32, kernel_size=(5, 5), stride=(1, 1), padding=(2, 2), groups=32, bias=False)
                (6): Conv2d(32, 32, kernel_size=(1, 1), stride=(1, 1), bias=False)
                (7): BatchNorm2d(32, eps=1e-05, momentum=0.1, affine=False, track_running_stats=True)
              )
            )
          )
        )
        (9): MixedOp(
          (_ops): ModuleList(
            (0): Sequential(
              (0): MaxPool2d(kernel_size=3, stride=2, padding=1, dilation=1, ceil_mode=False)
              (1): BatchNorm2d(32, eps=1e-05, momentum=0.1, affine=False, track_running_stats=True)
            )
            (1): Sequential(
              (0): AvgPool2d(kernel_size=3, stride=2, padding=1)
              (1): BatchNorm2d(32, eps=1e-05, momentum=0.1, affine=False, track_running_stats=True)
            )
            (2): FactorizedReduce(
              (relu): ReLU()
              (conv_1): Conv2d(32, 16, kernel_size=(1, 1), stride=(2, 2), bias=False)
              (conv_2): Conv2d(32, 16, kernel_size=(1, 1), stride=(2, 2), bias=False)
              (bn): BatchNorm2d(32, eps=1e-05, momentum=0.1, affine=False, track_running_stats=True)
            )
            (3): SepConv(
              (op): Sequential(
                (0): ReLU()
                (1): Conv2d(32, 32, kernel_size=(3, 3), stride=(2, 2), padding=(1, 1), groups=32, bias=False)
                (2): Conv2d(32, 32, kernel_size=(1, 1), stride=(1, 1), bias=False)
                (3): BatchNorm2d(32, eps=1e-05, momentum=0.1, affine=False, track_running_stats=True)
                (4): ReLU()
                (5): Conv2d(32, 32, kernel_size=(3, 3), stride=(1, 1), padding=(1, 1), groups=32, bias=False)
                (6): Conv2d(32, 32, kernel_size=(1, 1), stride=(1, 1), bias=False)
                (7): BatchNorm2d(32, eps=1e-05, momentum=0.1, affine=False, track_running_stats=True)
              )
            )
            (4): SepConv(
              (op): Sequential(
                (0): ReLU()
                (1): Conv2d(32, 32, kernel_size=(5, 5), stride=(2, 2), padding=(2, 2), groups=32, bias=False)
                (2): Conv2d(32, 32, kernel_size=(1, 1), stride=(1, 1), bias=False)
                (3): BatchNorm2d(32, eps=1e-05, momentum=0.1, affine=False, track_running_stats=True)
                (4): ReLU()
                (5): Conv2d(32, 32, kernel_size=(5, 5), stride=(1, 1), padding=(2, 2), groups=32, bias=False)
                (6): Conv2d(32, 32, kernel_size=(1, 1), stride=(1, 1), bias=False)
                (7): BatchNorm2d(32, eps=1e-05, momentum=0.1, affine=False, track_running_stats=True)
              )
            )
          )
        )
        (10): MixedOp(
          (_ops): ModuleList(
            (0): Sequential(
              (0): MaxPool2d(kernel_size=3, stride=2, padding=1, dilation=1, ceil_mode=False)
              (1): BatchNorm2d(32, eps=1e-05, momentum=0.1, affine=False, track_running_stats=True)
            )
            (1): Sequential(
              (0): AvgPool2d(kernel_size=3, stride=2, padding=1)
              (1): BatchNorm2d(32, eps=1e-05, momentum=0.1, affine=False, track_running_stats=True)
            )
            (2): FactorizedReduce(
              (relu): ReLU()
              (conv_1): Conv2d(32, 16, kernel_size=(1, 1), stride=(2, 2), bias=False)
              (conv_2): Conv2d(32, 16, kernel_size=(1, 1), stride=(2, 2), bias=False)
              (bn): BatchNorm2d(32, eps=1e-05, momentum=0.1, affine=False, track_running_stats=True)
            )
            (3): SepConv(
              (op): Sequential(
                (0): ReLU()
                (1): Conv2d(32, 32, kernel_size=(3, 3), stride=(2, 2), padding=(1, 1), groups=32, bias=False)
                (2): Conv2d(32, 32, kernel_size=(1, 1), stride=(1, 1), bias=False)
                (3): BatchNorm2d(32, eps=1e-05, momentum=0.1, affine=False, track_running_stats=True)
                (4): ReLU()
                (5): Conv2d(32, 32, kernel_size=(3, 3), stride=(1, 1), padding=(1, 1), groups=32, bias=False)
                (6): Conv2d(32, 32, kernel_size=(1, 1), stride=(1, 1), bias=False)
                (7): BatchNorm2d(32, eps=1e-05, momentum=0.1, affine=False, track_running_stats=True)
              )
            )
            (4): SepConv(
              (op): Sequential(
                (0): ReLU()
                (1): Conv2d(32, 32, kernel_size=(5, 5), stride=(2, 2), padding=(2, 2), groups=32, bias=False)
                (2): Conv2d(32, 32, kernel_size=(1, 1), stride=(1, 1), bias=False)
                (3): BatchNorm2d(32, eps=1e-05, momentum=0.1, affine=False, track_running_stats=True)
                (4): ReLU()
                (5): Conv2d(32, 32, kernel_size=(5, 5), stride=(1, 1), padding=(2, 2), groups=32, bias=False)
                (6): Conv2d(32, 32, kernel_size=(1, 1), stride=(1, 1), bias=False)
                (7): BatchNorm2d(32, eps=1e-05, momentum=0.1, affine=False, track_running_stats=True)
              )
            )
          )
        )
        (11): MixedOp(
          (_ops): ModuleList(
            (0): Sequential(
              (0): MaxPool2d(kernel_size=3, stride=1, padding=1, dilation=1, ceil_mode=False)
              (1): BatchNorm2d(32, eps=1e-05, momentum=0.1, affine=False, track_running_stats=True)
            )
            (1): Sequential(
              (0): AvgPool2d(kernel_size=3, stride=1, padding=1)
              (1): BatchNorm2d(32, eps=1e-05, momentum=0.1, affine=False, track_running_stats=True)
            )
            (2): Identity()
            (3): SepConv(
              (op): Sequential(
                (0): ReLU()
                (1): Conv2d(32, 32, kernel_size=(3, 3), stride=(1, 1), padding=(1, 1), groups=32, bias=False)
                (2): Conv2d(32, 32, kernel_size=(1, 1), stride=(1, 1), bias=False)
                (3): BatchNorm2d(32, eps=1e-05, momentum=0.1, affine=False, track_running_stats=True)
                (4): ReLU()
                (5): Conv2d(32, 32, kernel_size=(3, 3), stride=(1, 1), padding=(1, 1), groups=32, bias=False)
                (6): Conv2d(32, 32, kernel_size=(1, 1), stride=(1, 1), bias=False)
                (7): BatchNorm2d(32, eps=1e-05, momentum=0.1, affine=False, track_running_stats=True)
              )
            )
            (4): SepConv(
              (op): Sequential(
                (0): ReLU()
                (1): Conv2d(32, 32, kernel_size=(5, 5), stride=(1, 1), padding=(2, 2), groups=32, bias=False)
                (2): Conv2d(32, 32, kernel_size=(1, 1), stride=(1, 1), bias=False)
                (3): BatchNorm2d(32, eps=1e-05, momentum=0.1, affine=False, track_running_stats=True)
                (4): ReLU()
                (5): Conv2d(32, 32, kernel_size=(5, 5), stride=(1, 1), padding=(2, 2), groups=32, bias=False)
                (6): Conv2d(32, 32, kernel_size=(1, 1), stride=(1, 1), bias=False)
                (7): BatchNorm2d(32, eps=1e-05, momentum=0.1, affine=False, track_running_stats=True)
              )
            )
          )
        )
        (12): MixedOp(
          (_ops): ModuleList(
            (0): Sequential(
              (0): MaxPool2d(kernel_size=3, stride=1, padding=1, dilation=1, ceil_mode=False)
              (1): BatchNorm2d(32, eps=1e-05, momentum=0.1, affine=False, track_running_stats=True)
            )
            (1): Sequential(
              (0): AvgPool2d(kernel_size=3, stride=1, padding=1)
              (1): BatchNorm2d(32, eps=1e-05, momentum=0.1, affine=False, track_running_stats=True)
            )
            (2): Identity()
            (3): SepConv(
              (op): Sequential(
                (0): ReLU()
                (1): Conv2d(32, 32, kernel_size=(3, 3), stride=(1, 1), padding=(1, 1), groups=32, bias=False)
                (2): Conv2d(32, 32, kernel_size=(1, 1), stride=(1, 1), bias=False)
                (3): BatchNorm2d(32, eps=1e-05, momentum=0.1, affine=False, track_running_stats=True)
                (4): ReLU()
                (5): Conv2d(32, 32, kernel_size=(3, 3), stride=(1, 1), padding=(1, 1), groups=32, bias=False)
                (6): Conv2d(32, 32, kernel_size=(1, 1), stride=(1, 1), bias=False)
                (7): BatchNorm2d(32, eps=1e-05, momentum=0.1, affine=False, track_running_stats=True)
              )
            )
            (4): SepConv(
              (op): Sequential(
                (0): ReLU()
                (1): Conv2d(32, 32, kernel_size=(5, 5), stride=(1, 1), padding=(2, 2), groups=32, bias=False)
                (2): Conv2d(32, 32, kernel_size=(1, 1), stride=(1, 1), bias=False)
                (3): BatchNorm2d(32, eps=1e-05, momentum=0.1, affine=False, track_running_stats=True)
                (4): ReLU()
                (5): Conv2d(32, 32, kernel_size=(5, 5), stride=(1, 1), padding=(2, 2), groups=32, bias=False)
                (6): Conv2d(32, 32, kernel_size=(1, 1), stride=(1, 1), bias=False)
                (7): BatchNorm2d(32, eps=1e-05, momentum=0.1, affine=False, track_running_stats=True)
              )
            )
          )
        )
        (13): MixedOp(
          (_ops): ModuleList(
            (0): Sequential(
              (0): MaxPool2d(kernel_size=3, stride=1, padding=1, dilation=1, ceil_mode=False)
              (1): BatchNorm2d(32, eps=1e-05, momentum=0.1, affine=False, track_running_stats=True)
            )
            (1): Sequential(
              (0): AvgPool2d(kernel_size=3, stride=1, padding=1)
              (1): BatchNorm2d(32, eps=1e-05, momentum=0.1, affine=False, track_running_stats=True)
            )
            (2): Identity()
            (3): SepConv(
              (op): Sequential(
                (0): ReLU()
                (1): Conv2d(32, 32, kernel_size=(3, 3), stride=(1, 1), padding=(1, 1), groups=32, bias=False)
                (2): Conv2d(32, 32, kernel_size=(1, 1), stride=(1, 1), bias=False)
                (3): BatchNorm2d(32, eps=1e-05, momentum=0.1, affine=False, track_running_stats=True)
                (4): ReLU()
                (5): Conv2d(32, 32, kernel_size=(3, 3), stride=(1, 1), padding=(1, 1), groups=32, bias=False)
                (6): Conv2d(32, 32, kernel_size=(1, 1), stride=(1, 1), bias=False)
                (7): BatchNorm2d(32, eps=1e-05, momentum=0.1, affine=False, track_running_stats=True)
              )
            )
            (4): SepConv(
              (op): Sequential(
                (0): ReLU()
                (1): Conv2d(32, 32, kernel_size=(5, 5), stride=(1, 1), padding=(2, 2), groups=32, bias=False)
                (2): Conv2d(32, 32, kernel_size=(1, 1), stride=(1, 1), bias=False)
                (3): BatchNorm2d(32, eps=1e-05, momentum=0.1, affine=False, track_running_stats=True)
                (4): ReLU()
                (5): Conv2d(32, 32, kernel_size=(5, 5), stride=(1, 1), padding=(2, 2), groups=32, bias=False)
                (6): Conv2d(32, 32, kernel_size=(1, 1), stride=(1, 1), bias=False)
                (7): BatchNorm2d(32, eps=1e-05, momentum=0.1, affine=False, track_running_stats=True)
              )
            )
          )
        )
      )
      (_bns): ModuleList()
    )
    (5): Cell(
      (preprocess0): FactorizedReduce(
        (relu): ReLU()
        (conv_1): Conv2d(64, 16, kernel_size=(1, 1), stride=(2, 2), bias=False)
        (conv_2): Conv2d(64, 16, kernel_size=(1, 1), stride=(2, 2), bias=False)
        (bn): BatchNorm2d(32, eps=1e-05, momentum=0.1, affine=False, track_running_stats=True)
      )
      (preprocess1): ReLUConvBN(
        (op): Sequential(
          (0): ReLU()
          (1): Conv2d(128, 32, kernel_size=(1, 1), stride=(1, 1), bias=False)
          (2): BatchNorm2d(32, eps=1e-05, momentum=0.1, affine=False, track_running_stats=True)
        )
      )
      (_ops): ModuleList(
        (0): MixedOp(
          (_ops): ModuleList(
            (0): Sequential(
              (0): MaxPool2d(kernel_size=3, stride=1, padding=1, dilation=1, ceil_mode=False)
              (1): BatchNorm2d(32, eps=1e-05, momentum=0.1, affine=False, track_running_stats=True)
            )
            (1): Sequential(
              (0): AvgPool2d(kernel_size=3, stride=1, padding=1)
              (1): BatchNorm2d(32, eps=1e-05, momentum=0.1, affine=False, track_running_stats=True)
            )
            (2): Identity()
            (3): SepConv(
              (op): Sequential(
                (0): ReLU()
                (1): Conv2d(32, 32, kernel_size=(3, 3), stride=(1, 1), padding=(1, 1), groups=32, bias=False)
                (2): Conv2d(32, 32, kernel_size=(1, 1), stride=(1, 1), bias=False)
                (3): BatchNorm2d(32, eps=1e-05, momentum=0.1, affine=False, track_running_stats=True)
                (4): ReLU()
                (5): Conv2d(32, 32, kernel_size=(3, 3), stride=(1, 1), padding=(1, 1), groups=32, bias=False)
                (6): Conv2d(32, 32, kernel_size=(1, 1), stride=(1, 1), bias=False)
                (7): BatchNorm2d(32, eps=1e-05, momentum=0.1, affine=False, track_running_stats=True)
              )
            )
            (4): SepConv(
              (op): Sequential(
                (0): ReLU()
                (1): Conv2d(32, 32, kernel_size=(5, 5), stride=(1, 1), padding=(2, 2), groups=32, bias=False)
                (2): Conv2d(32, 32, kernel_size=(1, 1), stride=(1, 1), bias=False)
                (3): BatchNorm2d(32, eps=1e-05, momentum=0.1, affine=False, track_running_stats=True)
                (4): ReLU()
                (5): Conv2d(32, 32, kernel_size=(5, 5), stride=(1, 1), padding=(2, 2), groups=32, bias=False)
                (6): Conv2d(32, 32, kernel_size=(1, 1), stride=(1, 1), bias=False)
                (7): BatchNorm2d(32, eps=1e-05, momentum=0.1, affine=False, track_running_stats=True)
              )
            )
          )
        )
        (1): MixedOp(
          (_ops): ModuleList(
            (0): Sequential(
              (0): MaxPool2d(kernel_size=3, stride=1, padding=1, dilation=1, ceil_mode=False)
…
                (1): Conv2d(64, 64, kernel_size=(5, 5), stride=(1, 1), padding=(2, 2), groups=64, bias=False)
                (2): Conv2d(64, 64, kernel_size=(1, 1), stride=(1, 1), bias=False)
                (3): BatchNorm2d(64, eps=1e-05, momentum=0.1, affine=False, track_running_stats=True)
                (4): ReLU()
                (5): Conv2d(64, 64, kernel_size=(5, 5), stride=(1, 1), padding=(2, 2), groups=64, bias=False)
                (6): Conv2d(64, 64, kernel_size=(1, 1), stride=(1, 1), bias=False)
                (7): BatchNorm2d(64, eps=1e-05, momentum=0.1, affine=False, track_running_stats=True)
              )
            )
          )
        )
        (4): MixedOp(
          (_ops): ModuleList(
            (0): Sequential(
              (0): MaxPool2d(kernel_size=3, stride=1, padding=1, dilation=1, ceil_mode=False)
              (1): BatchNorm2d(64, eps=1e-05, momentum=0.1, affine=False, track_running_stats=True)
            )
            (1): Sequential(
              (0): AvgPool2d(kernel_size=3, stride=1, padding=1)
              (1): BatchNorm2d(64, eps=1e-05, momentum=0.1, affine=False, track_running_stats=True)
            )
            (2): Identity()
            (3): SepConv(
              (op): Sequential(
                (0): ReLU()
                (1): Conv2d(64, 64, kernel_size=(3, 3), stride=(1, 1), padding=(1, 1), groups=64, bias=False)
                (2): Conv2d(64, 64, kernel_size=(1, 1), stride=(1, 1), bias=False)
                (3): BatchNorm2d(64, eps=1e-05, momentum=0.1, affine=False, track_running_stats=True)
                (4): ReLU()
                (5): Conv2d(64, 64, kernel_size=(3, 3), stride=(1, 1), padding=(1, 1), groups=64, bias=False)
                (6): Conv2d(64, 64, kernel_size=(1, 1), stride=(1, 1), bias=False)
                (7): BatchNorm2d(64, eps=1e-05, momentum=0.1, affine=False, track_running_stats=True)
              )
            )
            (4): SepConv(
              (op): Sequential(
                (0): ReLU()
                (1): Conv2d(64, 64, kernel_size=(5, 5), stride=(1, 1), padding=(2, 2), groups=64, bias=False)
                (2): Conv2d(64, 64, kernel_size=(1, 1), stride=(1, 1), bias=False)
                (3): BatchNorm2d(64, eps=1e-05, momentum=0.1, affine=False, track_running_stats=True)
                (4): ReLU()
                (5): Conv2d(64, 64, kernel_size=(5, 5), stride=(1, 1), padding=(2, 2), groups=64, bias=False)
                (6): Conv2d(64, 64, kernel_size=(1, 1), stride=(1, 1), bias=False)
                (7): BatchNorm2d(64, eps=1e-05, momentum=0.1, affine=False, track_running_stats=True)
              )
            )
          )
        )
        (5): MixedOp(
          (_ops): ModuleList(
            (0): Sequential(
              (0): MaxPool2d(kernel_size=3, stride=1, padding=1, dilation=1, ceil_mode=False)
              (1): BatchNorm2d(64, eps=1e-05, momentum=0.1, affine=False, track_running_stats=True)
            )
            (1): Sequential(
              (0): AvgPool2d(kernel_size=3, stride=1, padding=1)
              (1): BatchNorm2d(64, eps=1e-05, momentum=0.1, affine=False, track_running_stats=True)
            )
            (2): Identity()
            (3): SepConv(
              (op): Sequential(
                (0): ReLU()
                (1): Conv2d(64, 64, kernel_size=(3, 3), stride=(1, 1), padding=(1, 1), groups=64, bias=False)
                (2): Conv2d(64, 64, kernel_size=(1, 1), stride=(1, 1), bias=False)
                (3): BatchNorm2d(64, eps=1e-05, momentum=0.1, affine=False, track_running_stats=True)
                (4): ReLU()
                (5): Conv2d(64, 64, kernel_size=(3, 3), stride=(1, 1), padding=(1, 1), groups=64, bias=False)
                (6): Conv2d(64, 64, kernel_size=(1, 1), stride=(1, 1), bias=False)
                (7): BatchNorm2d(64, eps=1e-05, momentum=0.1, affine=False, track_running_stats=True)
              )
            )
            (4): SepConv(
              (op): Sequential(
                (0): ReLU()
                (1): Conv2d(64, 64, kernel_size=(5, 5), stride=(1, 1), padding=(2, 2), groups=64, bias=False)
                (2): Conv2d(64, 64, kernel_size=(1, 1), stride=(1, 1), bias=False)
                (3): BatchNorm2d(64, eps=1e-05, momentum=0.1, affine=False, track_running_stats=True)
                (4): ReLU()
                (5): Conv2d(64, 64, kernel_size=(5, 5), stride=(1, 1), padding=(2, 2), groups=64, bias=False)
                (6): Conv2d(64, 64, kernel_size=(1, 1), stride=(1, 1), bias=False)
                (7): BatchNorm2d(64, eps=1e-05, momentum=0.1, affine=False, track_running_stats=True)
              )
            )
          )
        )
        (6): MixedOp(
          (_ops): ModuleList(
            (0): Sequential(
              (0): MaxPool2d(kernel_size=3, stride=1, padding=1, dilation=1, ceil_mode=False)
              (1): BatchNorm2d(64, eps=1e-05, momentum=0.1, affine=False, track_running_stats=True)
            )
            (1): Sequential(
              (0): AvgPool2d(kernel_size=3, stride=1, padding=1)
              (1): BatchNorm2d(64, eps=1e-05, momentum=0.1, affine=False, track_running_stats=True)
            )
            (2): Identity()
            (3): SepConv(
              (op): Sequential(
                (0): ReLU()
                (1): Conv2d(64, 64, kernel_size=(3, 3), stride=(1, 1), padding=(1, 1), groups=64, bias=False)
                (2): Conv2d(64, 64, kernel_size=(1, 1), stride=(1, 1), bias=False)
                (3): BatchNorm2d(64, eps=1e-05, momentum=0.1, affine=False, track_running_stats=True)
                (4): ReLU()
                (5): Conv2d(64, 64, kernel_size=(3, 3), stride=(1, 1), padding=(1, 1), groups=64, bias=False)
                (6): Conv2d(64, 64, kernel_size=(1, 1), stride=(1, 1), bias=False)
                (7): BatchNorm2d(64, eps=1e-05, momentum=0.1, affine=False, track_running_stats=True)
              )
            )
            (4): SepConv(
              (op): Sequential(
                (0): ReLU()
                (1): Conv2d(64, 64, kernel_size=(5, 5), stride=(1, 1), padding=(2, 2), groups=64, bias=False)
                (2): Conv2d(64, 64, kernel_size=(1, 1), stride=(1, 1), bias=False)
                (3): BatchNorm2d(64, eps=1e-05, momentum=0.1, affine=False, track_running_stats=True)
                (4): ReLU()
                (5): Conv2d(64, 64, kernel_size=(5, 5), stride=(1, 1), padding=(2, 2), groups=64, bias=False)
                (6): Conv2d(64, 64, kernel_size=(1, 1), stride=(1, 1), bias=False)
                (7): BatchNorm2d(64, eps=1e-05, momentum=0.1, affine=False, track_running_stats=True)
              )
            )
          )
        )
        (7): MixedOp(
          (_ops): ModuleList(
            (0): Sequential(
              (0): MaxPool2d(kernel_size=3, stride=1, padding=1, dilation=1, ceil_mode=False)
              (1): BatchNorm2d(64, eps=1e-05, momentum=0.1, affine=False, track_running_stats=True)
            )
            (1): Sequential(
              (0): AvgPool2d(kernel_size=3, stride=1, padding=1)
              (1): BatchNorm2d(64, eps=1e-05, momentum=0.1, affine=False, track_running_stats=True)
            )
            (2): Identity()
            (3): SepConv(
              (op): Sequential(
                (0): ReLU()
                (1): Conv2d(64, 64, kernel_size=(3, 3), stride=(1, 1), padding=(1, 1), groups=64, bias=False)
                (2): Conv2d(64, 64, kernel_size=(1, 1), stride=(1, 1), bias=False)
                (3): BatchNorm2d(64, eps=1e-05, momentum=0.1, affine=False, track_running_stats=True)
                (4): ReLU()
                (5): Conv2d(64, 64, kernel_size=(3, 3), stride=(1, 1), padding=(1, 1), groups=64, bias=False)
                (6): Conv2d(64, 64, kernel_size=(1, 1), stride=(1, 1), bias=False)
                (7): BatchNorm2d(64, eps=1e-05, momentum=0.1, affine=False, track_running_stats=True)
              )
            )
            (4): SepConv(
              (op): Sequential(
                (0): ReLU()
                (1): Conv2d(64, 64, kernel_size=(5, 5), stride=(1, 1), padding=(2, 2), groups=64, bias=False)
                (2): Conv2d(64, 64, kernel_size=(1, 1), stride=(1, 1), bias=False)
                (3): BatchNorm2d(64, eps=1e-05, momentum=0.1, affine=False, track_running_stats=True)
                (4): ReLU()
                (5): Conv2d(64, 64, kernel_size=(5, 5), stride=(1, 1), padding=(2, 2), groups=64, bias=False)
                (6): Conv2d(64, 64, kernel_size=(1, 1), stride=(1, 1), bias=False)
                (7): BatchNorm2d(64, eps=1e-05, momentum=0.1, affine=False, track_running_stats=True)
              )
            )
          )
        )
        (8): MixedOp(
          (_ops): ModuleList(
            (0): Sequential(
              (0): MaxPool2d(kernel_size=3, stride=1, padding=1, dilation=1, ceil_mode=False)
              (1): BatchNorm2d(64, eps=1e-05, momentum=0.1, affine=False, track_running_stats=True)
            )
            (1): Sequential(
              (0): AvgPool2d(kernel_size=3, stride=1, padding=1)
              (1): BatchNorm2d(64, eps=1e-05, momentum=0.1, affine=False, track_running_stats=True)
            )
            (2): Identity()
            (3): SepConv(
              (op): Sequential(
                (0): ReLU()
                (1): Conv2d(64, 64, kernel_size=(3, 3), stride=(1, 1), padding=(1, 1), groups=64, bias=False)
                (2): Conv2d(64, 64, kernel_size=(1, 1), stride=(1, 1), bias=False)
                (3): BatchNorm2d(64, eps=1e-05, momentum=0.1, affine=False, track_running_stats=True)
                (4): ReLU()
                (5): Conv2d(64, 64, kernel_size=(3, 3), stride=(1, 1), padding=(1, 1), groups=64, bias=False)
                (6): Conv2d(64, 64, kernel_size=(1, 1), stride=(1, 1), bias=False)
                (7): BatchNorm2d(64, eps=1e-05, momentum=0.1, affine=False, track_running_stats=True)
              )
            )
            (4): SepConv(
              (op): Sequential(
                (0): ReLU()
                (1): Conv2d(64, 64, kernel_size=(5, 5), stride=(1, 1), padding=(2, 2), groups=64, bias=False)
                (2): Conv2d(64, 64, kernel_size=(1, 1), stride=(1, 1), bias=False)
                (3): BatchNorm2d(64, eps=1e-05, momentum=0.1, affine=False, track_running_stats=True)
                (4): ReLU()
                (5): Conv2d(64, 64, kernel_size=(5, 5), stride=(1, 1), padding=(2, 2), groups=64, bias=False)
                (6): Conv2d(64, 64, kernel_size=(1, 1), stride=(1, 1), bias=False)
                (7): BatchNorm2d(64, eps=1e-05, momentum=0.1, affine=False, track_running_stats=True)
              )
            )
          )
        )
        (9): MixedOp(
          (_ops): ModuleList(
            (0): Sequential(
              (0): MaxPool2d(kernel_size=3, stride=1, padding=1, dilation=1, ceil_mode=False)
              (1): BatchNorm2d(64, eps=1e-05, momentum=0.1, affine=False, track_running_stats=True)
            )
            (1): Sequential(
              (0): AvgPool2d(kernel_size=3, stride=1, padding=1)
              (1): BatchNorm2d(64, eps=1e-05, momentum=0.1, affine=False, track_running_stats=True)
            )
            (2): Identity()
            (3): SepConv(
              (op): Sequential(
                (0): ReLU()
                (1): Conv2d(64, 64, kernel_size=(3, 3), stride=(1, 1), padding=(1, 1), groups=64, bias=False)
                (2): Conv2d(64, 64, kernel_size=(1, 1), stride=(1, 1), bias=False)
                (3): BatchNorm2d(64, eps=1e-05, momentum=0.1, affine=False, track_running_stats=True)
                (4): ReLU()
                (5): Conv2d(64, 64, kernel_size=(3, 3), stride=(1, 1), padding=(1, 1), groups=64, bias=False)
                (6): Conv2d(64, 64, kernel_size=(1, 1), stride=(1, 1), bias=False)
                (7): BatchNorm2d(64, eps=1e-05, momentum=0.1, affine=False, track_running_stats=True)
              )
            )
            (4): SepConv(
              (op): Sequential(
                (0): ReLU()
                (1): Conv2d(64, 64, kernel_size=(5, 5), stride=(1, 1), padding=(2, 2), groups=64, bias=False)
                (2): Conv2d(64, 64, kernel_size=(1, 1), stride=(1, 1), bias=False)
                (3): BatchNorm2d(64, eps=1e-05, momentum=0.1, affine=False, track_running_stats=True)
                (4): ReLU()
                (5): Conv2d(64, 64, kernel_size=(5, 5), stride=(1, 1), padding=(2, 2), groups=64, bias=False)
                (6): Conv2d(64, 64, kernel_size=(1, 1), stride=(1, 1), bias=False)
                (7): BatchNorm2d(64, eps=1e-05, momentum=0.1, affine=False, track_running_stats=True)
              )
            )
          )
        )
        (10): MixedOp(
          (_ops): ModuleList(
            (0): Sequential(
              (0): MaxPool2d(kernel_size=3, stride=1, padding=1, dilation=1, ceil_mode=False)
              (1): BatchNorm2d(64, eps=1e-05, momentum=0.1, affine=False, track_running_stats=True)
            )
            (1): Sequential(
              (0): AvgPool2d(kernel_size=3, stride=1, padding=1)
              (1): BatchNorm2d(64, eps=1e-05, momentum=0.1, affine=False, track_running_stats=True)
            )
            (2): Identity()
            (3): SepConv(
              (op): Sequential(
                (0): ReLU()
                (1): Conv2d(64, 64, kernel_size=(3, 3), stride=(1, 1), padding=(1, 1), groups=64, bias=False)
                (2): Conv2d(64, 64, kernel_size=(1, 1), stride=(1, 1), bias=False)
                (3): BatchNorm2d(64, eps=1e-05, momentum=0.1, affine=False, track_running_stats=True)
                (4): ReLU()
                (5): Conv2d(64, 64, kernel_size=(3, 3), stride=(1, 1), padding=(1, 1), groups=64, bias=False)
                (6): Conv2d(64, 64, kernel_size=(1, 1), stride=(1, 1), bias=False)
                (7): BatchNorm2d(64, eps=1e-05, momentum=0.1, affine=False, track_running_stats=True)
              )
            )
            (4): SepConv(
              (op): Sequential(
                (0): ReLU()
                (1): Conv2d(64, 64, kernel_size=(5, 5), stride=(1, 1), padding=(2, 2), groups=64, bias=False)
                (2): Conv2d(64, 64, kernel_size=(1, 1), stride=(1, 1), bias=False)
                (3): BatchNorm2d(64, eps=1e-05, momentum=0.1, affine=False, track_running_stats=True)
                (4): ReLU()
                (5): Conv2d(64, 64, kernel_size=(5, 5), stride=(1, 1), padding=(2, 2), groups=64, bias=False)
                (6): Conv2d(64, 64, kernel_size=(1, 1), stride=(1, 1), bias=False)
                (7): BatchNorm2d(64, eps=1e-05, momentum=0.1, affine=False, track_running_stats=True)
              )
            )
          )
        )
        (11): MixedOp(
          (_ops): ModuleList(
            (0): Sequential(
              (0): MaxPool2d(kernel_size=3, stride=1, padding=1, dilation=1, ceil_mode=False)
              (1): BatchNorm2d(64, eps=1e-05, momentum=0.1, affine=False, track_running_stats=True)
            )
            (1): Sequential(
              (0): AvgPool2d(kernel_size=3, stride=1, padding=1)
              (1): BatchNorm2d(64, eps=1e-05, momentum=0.1, affine=False, track_running_stats=True)
            )
            (2): Identity()
            (3): SepConv(
              (op): Sequential(
                (0): ReLU()
                (1): Conv2d(64, 64, kernel_size=(3, 3), stride=(1, 1), padding=(1, 1), groups=64, bias=False)
                (2): Conv2d(64, 64, kernel_size=(1, 1), stride=(1, 1), bias=False)
                (3): BatchNorm2d(64, eps=1e-05, momentum=0.1, affine=False, track_running_stats=True)
                (4): ReLU()
                (5): Conv2d(64, 64, kernel_size=(3, 3), stride=(1, 1), padding=(1, 1), groups=64, bias=False)
                (6): Conv2d(64, 64, kernel_size=(1, 1), stride=(1, 1), bias=False)
                (7): BatchNorm2d(64, eps=1e-05, momentum=0.1, affine=False, track_running_stats=True)
              )
            )
            (4): SepConv(
              (op): Sequential(
                (0): ReLU()
                (1): Conv2d(64, 64, kernel_size=(5, 5), stride=(1, 1), padding=(2, 2), groups=64, bias=False)
                (2): Conv2d(64, 64, kernel_size=(1, 1), stride=(1, 1), bias=False)
                (3): BatchNorm2d(64, eps=1e-05, momentum=0.1, affine=False, track_running_stats=True)
                (4): ReLU()
                (5): Conv2d(64, 64, kernel_size=(5, 5), stride=(1, 1), padding=(2, 2), groups=64, bias=False)
                (6): Conv2d(64, 64, kernel_size=(1, 1), stride=(1, 1), bias=False)
                (7): BatchNorm2d(64, eps=1e-05, momentum=0.1, affine=False, track_running_stats=True)
              )
            )
          )
        )
        (12): MixedOp(
          (_ops): ModuleList(
            (0): Sequential(
              (0): MaxPool2d(kernel_size=3, stride=1, padding=1, dilation=1, ceil_mode=False)
              (1): BatchNorm2d(64, eps=1e-05, momentum=0.1, affine=False, track_running_stats=True)
            )
            (1): Sequential(
              (0): AvgPool2d(kernel_size=3, stride=1, padding=1)
              (1): BatchNorm2d(64, eps=1e-05, momentum=0.1, affine=False, track_running_stats=True)
            )
            (2): Identity()
            (3): SepConv(
              (op): Sequential(
                (0): ReLU()
                (1): Conv2d(64, 64, kernel_size=(3, 3), stride=(1, 1), padding=(1, 1), groups=64, bias=False)
                (2): Conv2d(64, 64, kernel_size=(1, 1), stride=(1, 1), bias=False)
                (3): BatchNorm2d(64, eps=1e-05, momentum=0.1, affine=False, track_running_stats=True)
                (4): ReLU()
                (5): Conv2d(64, 64, kernel_size=(3, 3), stride=(1, 1), padding=(1, 1), groups=64, bias=False)
                (6): Conv2d(64, 64, kernel_size=(1, 1), stride=(1, 1), bias=False)
                (7): BatchNorm2d(64, eps=1e-05, momentum=0.1, affine=False, track_running_stats=True)
              )
            )
            (4): SepConv(
              (op): Sequential(
                (0): ReLU()
                (1): Conv2d(64, 64, kernel_size=(5, 5), stride=(1, 1), padding=(2, 2), groups=64, bias=False)
                (2): Conv2d(64, 64, kernel_size=(1, 1), stride=(1, 1), bias=False)
                (3): BatchNorm2d(64, eps=1e-05, momentum=0.1, affine=False, track_running_stats=True)
                (4): ReLU()
                (5): Conv2d(64, 64, kernel_size=(5, 5), stride=(1, 1), padding=(2, 2), groups=64, bias=False)
                (6): Conv2d(64, 64, kernel_size=(1, 1), stride=(1, 1), bias=False)
                (7): BatchNorm2d(64, eps=1e-05, momentum=0.1, affine=False, track_running_stats=True)
              )
            )
          )
        )
        (13): MixedOp(
          (_ops): ModuleList(
            (0): Sequential(
              (0): MaxPool2d(kernel_size=3, stride=1, padding=1, dilation=1, ceil_mode=False)
              (1): BatchNorm2d(64, eps=1e-05, momentum=0.1, affine=False, track_running_stats=True)
            )
            (1): Sequential(
              (0): AvgPool2d(kernel_size=3, stride=1, padding=1)
              (1): BatchNorm2d(64, eps=1e-05, momentum=0.1, affine=False, track_running_stats=True)
            )
            (2): Identity()
            (3): SepConv(
              (op): Sequential(
                (0): ReLU()
                (1): Conv2d(64, 64, kernel_size=(3, 3), stride=(1, 1), padding=(1, 1), groups=64, bias=False)
                (2): Conv2d(64, 64, kernel_size=(1, 1), stride=(1, 1), bias=False)
                (3): BatchNorm2d(64, eps=1e-05, momentum=0.1, affine=False, track_running_stats=True)
                (4): ReLU()
                (5): Conv2d(64, 64, kernel_size=(3, 3), stride=(1, 1), padding=(1, 1), groups=64, bias=False)
                (6): Conv2d(64, 64, kernel_size=(1, 1), stride=(1, 1), bias=False)
                (7): BatchNorm2d(64, eps=1e-05, momentum=0.1, affine=False, track_running_stats=True)
              )
            )
            (4): SepConv(
              (op): Sequential(
                (0): ReLU()
                (1): Conv2d(64, 64, kernel_size=(5, 5), stride=(1, 1), padding=(2, 2), groups=64, bias=False)
                (2): Conv2d(64, 64, kernel_size=(1, 1), stride=(1, 1), bias=False)
                (3): BatchNorm2d(64, eps=1e-05, momentum=0.1, affine=False, track_running_stats=True)
                (4): ReLU()
                (5): Conv2d(64, 64, kernel_size=(5, 5), stride=(1, 1), padding=(2, 2), groups=64, bias=False)
                (6): Conv2d(64, 64, kernel_size=(1, 1), stride=(1, 1), bias=False)
                (7): BatchNorm2d(64, eps=1e-05, momentum=0.1, affine=False, track_running_stats=True)
              )
            )
          )
        )
      )
      (_bns): ModuleList()
    )
    (11): Cell(
      (preprocess0): ReLUConvBN(
        (op): Sequential(
          (0): ReLU()
          (1): Conv2d(256, 64, kernel_size=(1, 1), stride=(1, 1), bias=False)
          (2): BatchNorm2d(64, eps=1e-05, momentum=0.1, affine=False, track_running_stats=True)
        )
      )
      (preprocess1): ReLUConvBN(
        (op): Sequential(
          (0): ReLU()
          (1): Conv2d(256, 64, kernel_size=(1, 1), stride=(1, 1), bias=False)
          (2): BatchNorm2d(64, eps=1e-05, momentum=0.1, affine=False, track_running_stats=True)
        )
      )
      (_ops): ModuleList(
        (0): MixedOp(
          (_ops): ModuleList(
            (0): Sequential(
              (0): MaxPool2d(kernel_size=3, stride=1, padding=1, dilation=1, ceil_mode=False)
              (1): BatchNorm2d(64, eps=1e-05, momentum=0.1, affine=False, track_running_stats=True)
            )
            (1): Sequential(
              (0): AvgPool2d(kernel_size=3, stride=1, padding=1)
              (1): BatchNorm2d(64, eps=1e-05, momentum=0.1, affine=False, track_running_stats=True)
            )
            (2): Identity()
            (3): SepConv(
              (op): Sequential(
                (0): ReLU()
                (1): Conv2d(64, 64, kernel_size=(3, 3), stride=(1, 1), padding=(1, 1), groups=64, bias=False)
                (2): Conv2d(64, 64, kernel_size=(1, 1), stride=(1, 1), bias=False)
                (3): BatchNorm2d(64, eps=1e-05, momentum=0.1, affine=False, track_running_stats=True)
                (4): ReLU()
                (5): Conv2d(64, 64, kernel_size=(3, 3), stride=(1, 1), padding=(1, 1), groups=64, bias=False)
                (6): Conv2d(64, 64, kernel_size=(1, 1), stride=(1, 1), bias=False)
                (7): BatchNorm2d(64, eps=1e-05, momentum=0.1, affine=False, track_running_stats=True)
              )
            )
            (4): SepConv(
              (op): Sequential(
                (0): ReLU()
                (1): Conv2d(64, 64, kernel_size=(5, 5), stride=(1, 1), padding=(2, 2), groups=64, bias=False)
                (2): Conv2d(64, 64, kernel_size=(1, 1), stride=(1, 1), bias=False)
                (3): BatchNorm2d(64, eps=1e-05, momentum=0.1, affine=False, track_running_stats=True)
                (4): ReLU()
                (5): Conv2d(64, 64, kernel_size=(5, 5), stride=(1, 1), padding=(2, 2), groups=64, bias=False)
                (6): Conv2d(64, 64, kernel_size=(1, 1), stride=(1, 1), bias=False)
                (7): BatchNorm2d(64, eps=1e-05, momentum=0.1, affine=False, track_running_stats=True)
              )
            )
          )
        )
        (1): MixedOp(
          (_ops): ModuleList(
            (0): Sequential(
              (0): MaxPool2d(kernel_size=3, stride=1, padding=1, dilation=1, ceil_mode=False)
              (1): BatchNorm2d(64, eps=1e-05, momentum=0.1, affine=False, track_running_stats=True)
            )
            (1): Sequential(
              (0): AvgPool2d(kernel_size=3, stride=1, padding=1)
              (1): BatchNorm2d(64, eps=1e-05, momentum=0.1, affine=False, track_running_stats=True)
            )
            (2): Identity()
            (3): SepConv(
              (op): Sequential(
                (0): ReLU()
                (1): Conv2d(64, 64, kernel_size=(3, 3), stride=(1, 1), padding=(1, 1), groups=64, bias=False)
                (2): Conv2d(64, 64, kernel_size=(1, 1), stride=(1, 1), bias=False)
                (3): BatchNorm2d(64, eps=1e-05, momentum=0.1, affine=False, track_running_stats=True)
                (4): ReLU()
                (5): Conv2d(64, 64, kernel_size=(3, 3), stride=(1, 1), padding=(1, 1), groups=64, bias=False)
                (6): Conv2d(64, 64, kernel_size=(1, 1), stride=(1, 1), bias=False)
                (7): BatchNorm2d(64, eps=1e-05, momentum=0.1, affine=False, track_running_stats=True)
              )
            )
            (4): SepConv(
              (op): Sequential(
                (0): ReLU()
                (1): Conv2d(64, 64, kernel_size=(5, 5), stride=(1, 1), padding=(2, 2), groups=64, bias=False)
                (2): Conv2d(64, 64, kernel_size=(1, 1), stride=(1, 1), bias=False)
                (3): BatchNorm2d(64, eps=1e-05, momentum=0.1, affine=False, track_running_stats=True)
                (4): ReLU()
                (5): Conv2d(64, 64, kernel_size=(5, 5), stride=(1, 1), padding=(2, 2), groups=64, bias=False)
                (6): Conv2d(64, 64, kernel_size=(1, 1), stride=(1, 1), bias=False)
                (7): BatchNorm2d(64, eps=1e-05, momentum=0.1, affine=False, track_running_stats=True)
              )
            )
          )
        )
        (2): MixedOp(
          (_ops): ModuleList(
            (0): Sequential(
              (0): MaxPool2d(kernel_size=3, stride=1, padding=1, dilation=1, ceil_mode=False)
              (1): BatchNorm2d(64, eps=1e-05, momentum=0.1, affine=False, track_running_stats=True)
            )
            (1): Sequential(
              (0): AvgPool2d(kernel_size=3, stride=1, padding=1)
              (1): BatchNorm2d(64, eps=1e-05, momentum=0.1, affine=False, track_running_stats=True)
            )
            (2): Identity()
            (3): SepConv(
              (op): Sequential(
                (0): ReLU()
                (1): Conv2d(64, 64, kernel_size=(3, 3), stride=(1, 1), padding=(1, 1), groups=64, bias=False)
                (2): Conv2d(64, 64, kernel_size=(1, 1), stride=(1, 1), bias=False)
                (3): BatchNorm2d(64, eps=1e-05, momentum=0.1, affine=False, track_running_stats=True)
                (4): ReLU()
                (5): Conv2d(64, 64, kernel_size=(3, 3), stride=(1, 1), padding=(1, 1), groups=64, bias=False)
                (6): Conv2d(64, 64, kernel_size=(1, 1), stride=(1, 1), bias=False)
                (7): BatchNorm2d(64, eps=1e-05, momentum=0.1, affine=False, track_running_stats=True)
              )
            )
            (4): SepConv(
              (op): Sequential(
                (0): ReLU()
                (1): Conv2d(64, 64, kernel_size=(5, 5), stride=(1, 1), padding=(2, 2), groups=64, bias=False)
                (2): Conv2d(64, 64, kernel_size=(1, 1), stride=(1, 1), bias=False)
                (3): BatchNorm2d(64, eps=1e-05, momentum=0.1, affine=False, track_running_stats=True)
                (4): ReLU()
                (5): Conv2d(64, 64, kernel_size=(5, 5), stride=(1, 1), padding=(2, 2), groups=64, bias=False)
                (6): Conv2d(64, 64, kernel_size=(1, 1), stride=(1, 1), bias=False)
                (7): BatchNorm2d(64, eps=1e-05, momentum=0.1, affine=False, track_running_stats=True)
              )
            )
          )
        )
        (3): MixedOp(
          (_ops): ModuleList(
            (0): Sequential(
              (0): MaxPool2d(kernel_size=3, stride=1, padding=1, dilation=1, ceil_mode=False)
              (1): BatchNorm2d(64, eps=1e-05, momentum=0.1, affine=False, track_running_stats=True)
            )
            (1): Sequential(
              (0): AvgPool2d(kernel_size=3, stride=1, padding=1)
              (1): BatchNorm2d(64, eps=1e-05, momentum=0.1, affine=False, track_running_stats=True)
            )
            (2): Identity()
            (3): SepConv(
              (op): Sequential(
                (0): ReLU()
                (1): Conv2d(64, 64, kernel_size=(3, 3), stride=(1, 1), padding=(1, 1), groups=64, bias=False)
                (2): Conv2d(64, 64, kernel_size=(1, 1), stride=(1, 1), bias=False)
                (3): BatchNorm2d(64, eps=1e-05, momentum=0.1, affine=False, track_running_stats=True)
                (4): ReLU()
                (5): Conv2d(64, 64, kernel_size=(3, 3), stride=(1, 1), padding=(1, 1), groups=64, bias=False)
                (6): Conv2d(64, 64, kernel_size=(1, 1), stride=(1, 1), bias=False)
                (7): BatchNorm2d(64, eps=1e-05, momentum=0.1, affine=False, track_running_stats=True)
              )
            )
            (4): SepConv(
              (op): Sequential(
                (0): ReLU()
                (1): Conv2d(64, 64, kernel_size=(5, 5), stride=(1, 1), padding=(2, 2), groups=64, bias=False)
                (2): Conv2d(64, 64, kernel_size=(1, 1), stride=(1, 1), bias=False)
                (3): BatchNorm2d(64, eps=1e-05, momentum=0.1, affine=False, track_running_stats=True)
                (4): ReLU()
                (5): Conv2d(64, 64, kernel_size=(5, 5), stride=(1, 1), padding=(2, 2), groups=64, bias=False)
                (6): Conv2d(64, 64, kernel_size=(1, 1), stride=(1, 1), bias=False)
                (7): BatchNorm2d(64, eps=1e-05, momentum=0.1, affine=False, track_running_stats=True)
              )
            )
          )
        )
        (4): MixedOp(
          (_ops): ModuleList(
            (0): Sequential(
              (0): MaxPool2d(kernel_size=3, stride=1, padding=1, dilation=1, ceil_mode=False)
              (1): BatchNorm2d(64, eps=1e-05, momentum=0.1, affine=False, track_running_stats=True)
            )
            (1): Sequential(
              (0): AvgPool2d(kernel_size=3, stride=1, padding=1)
              (1): BatchNorm2d(64, eps=1e-05, momentum=0.1, affine=False, track_running_stats=True)
            )
            (2): Identity()
            (3): SepConv(
              (op): Sequential(
                (0): ReLU()
                (1): Conv2d(64, 64, kernel_size=(3, 3), stride=(1, 1), padding=(1, 1), groups=64, bias=False)
                (2): Conv2d(64, 64, kernel_size=(1, 1), stride=(1, 1), bias=False)
                (3): BatchNorm2d(64, eps=1e-05, momentum=0.1, affine=False, track_running_stats=True)
                (4): ReLU()
                (5): Conv2d(64, 64, kernel_size=(3, 3), stride=(1, 1), padding=(1, 1), groups=64, bias=False)
                (6): Conv2d(64, 64, kernel_size=(1, 1), stride=(1, 1), bias=False)
                (7): BatchNorm2d(64, eps=1e-05, momentum=0.1, affine=False, track_running_stats=True)
              )
            )
            (4): SepConv(
              (op): Sequential(
                (0): ReLU()
                (1): Conv2d(64, 64, kernel_size=(5, 5), stride=(1, 1), padding=(2, 2), groups=64, bias=False)
                (2): Conv2d(64, 64, kernel_size=(1, 1), stride=(1, 1), bias=False)
                (3): BatchNorm2d(64, eps=1e-05, momentum=0.1, affine=False, track_running_stats=True)
                (4): ReLU()
                (5): Conv2d(64, 64, kernel_size=(5, 5), stride=(1, 1), padding=(2, 2), groups=64, bias=False)
                (6): Conv2d(64, 64, kernel_size=(1, 1), stride=(1, 1), bias=False)
                (7): BatchNorm2d(64, eps=1e-05, momentum=0.1, affine=False, track_running_stats=True)
              )
            )
          )
        )
        (5): MixedOp(
          (_ops): ModuleList(
            (0): Sequential(
              (0): MaxPool2d(kernel_size=3, stride=1, padding=1, dilation=1, ceil_mode=False)
              (1): BatchNorm2d(64, eps=1e-05, momentum=0.1, affine=False, track_running_stats=True)
            )
            (1): Sequential(
              (0): AvgPool2d(kernel_size=3, stride=1, padding=1)
              (1): BatchNorm2d(64, eps=1e-05, momentum=0.1, affine=False, track_running_stats=True)
            )
            (2): Identity()
            (3): SepConv(
              (op): Sequential(
                (0): ReLU()
                (1): Conv2d(64, 64, kernel_size=(3, 3), stride=(1, 1), padding=(1, 1), groups=64, bias=False)
                (2): Conv2d(64, 64, kernel_size=(1, 1), stride=(1, 1), bias=False)
                (3): BatchNorm2d(64, eps=1e-05, momentum=0.1, affine=False, track_running_stats=True)
                (4): ReLU()
                (5): Conv2d(64, 64, kernel_size=(3, 3), stride=(1, 1), padding=(1, 1), groups=64, bias=False)
                (6): Conv2d(64, 64, kernel_size=(1, 1), stride=(1, 1), bias=False)
                (7): BatchNorm2d(64, eps=1e-05, momentum=0.1, affine=False, track_running_stats=True)
              )
            )
            (4): SepConv(
              (op): Sequential(
                (0): ReLU()
                (1): Conv2d(64, 64, kernel_size=(5, 5), stride=(1, 1), padding=(2, 2), groups=64, bias=False)
                (2): Conv2d(64, 64, kernel_size=(1, 1), stride=(1, 1), bias=False)
                (3): BatchNorm2d(64, eps=1e-05, momentum=0.1, affine=False, track_running_stats=True)
                (4): ReLU()
                (5): Conv2d(64, 64, kernel_size=(5, 5), stride=(1, 1), padding=(2, 2), groups=64, bias=False)
                (6): Conv2d(64, 64, kernel_size=(1, 1), stride=(1, 1), bias=False)
                (7): BatchNorm2d(64, eps=1e-05, momentum=0.1, affine=False, track_running_stats=True)
              )
            )
          )
        )
        (6): MixedOp(
          (_ops): ModuleList(
            (0): Sequential(
              (0): MaxPool2d(kernel_size=3, stride=1, padding=1, dilation=1, ceil_mode=False)
              (1): BatchNorm2d(64, eps=1e-05, momentum=0.1, affine=False, track_running_stats=True)
            )
            (1): Sequential(
              (0): AvgPool2d(kernel_size=3, stride=1, padding=1)
              (1): BatchNorm2d(64, eps=1e-05, momentum=0.1, affine=False, track_running_stats=True)
            )
            (2): Identity()
            (3): SepConv(
              (op): Sequential(
                (0): ReLU()
                (1): Conv2d(64, 64, kernel_size=(3, 3), stride=(1, 1), padding=(1, 1), groups=64, bias=False)
                (2): Conv2d(64, 64, kernel_size=(1, 1), stride=(1, 1), bias=False)
                (3): BatchNorm2d(64, eps=1e-05, momentum=0.1, affine=False, track_running_stats=True)
                (4): ReLU()
                (5): Conv2d(64, 64, kernel_size=(3, 3), stride=(1, 1), padding=(1, 1), groups=64, bias=False)
                (6): Conv2d(64, 64, kernel_size=(1, 1), stride=(1, 1), bias=False)
                (7): BatchNorm2d(64, eps=1e-05, momentum=0.1, affine=False, track_running_stats=True)
              )
            )
            (4): SepConv(
              (op): Sequential(
                (0): ReLU()
                (1): Conv2d(64, 64, kernel_size=(5, 5), stride=(1, 1), padding=(2, 2), groups=64, bias=False)
                (2): Conv2d(64, 64, kernel_size=(1, 1), stride=(1, 1), bias=False)
                (3): BatchNorm2d(64, eps=1e-05, momentum=0.1, affine=False, track_running_stats=True)
                (4): ReLU()
                (5): Conv2d(64, 64, kernel_size=(5, 5), stride=(1, 1), padding=(2, 2), groups=64, bias=False)
                (6): Conv2d(64, 64, kernel_size=(1, 1), stride=(1, 1), bias=False)
                (7): BatchNorm2d(64, eps=1e-05, momentum=0.1, affine=False, track_running_stats=True)
              )
            )
          )
        )
        (7): MixedOp(
          (_ops): ModuleList(
            (0): Sequential(
              (0): MaxPool2d(kernel_size=3, stride=1, padding=1, dilation=1, ceil_mode=False)
              (1): BatchNorm2d(64, eps=1e-05, momentum=0.1, affine=False, track_running_stats=True)
            )
            (1): Sequential(
              (0): AvgPool2d(kernel_size=3, stride=1, padding=1)
              (1): BatchNorm2d(64, eps=1e-05, momentum=0.1, affine=False, track_running_stats=True)
            )
            (2): Identity()
            (3): SepConv(
              (op): Sequential(
                (0): ReLU()
                (1): Conv2d(64, 64, kernel_size=(3, 3), stride=(1, 1), padding=(1, 1), groups=64, bias=False)
                (2): Conv2d(64, 64, kernel_size=(1, 1), stride=(1, 1), bias=False)
                (3): BatchNorm2d(64, eps=1e-05, momentum=0.1, affine=False, track_running_stats=True)
                (4): ReLU()
                (5): Conv2d(64, 64, kernel_size=(3, 3), stride=(1, 1), padding=(1, 1), groups=64, bias=False)
                (6): Conv2d(64, 64, kernel_size=(1, 1), stride=(1, 1), bias=False)
                (7): BatchNorm2d(64, eps=1e-05, momentum=0.1, affine=False, track_running_stats=True)
              )
            )
            (4): SepConv(
              (op): Sequential(
                (0): ReLU()
                (1): Conv2d(64, 64, kernel_size=(5, 5), stride=(1, 1), padding=(2, 2), groups=64, bias=False)
                (2): Conv2d(64, 64, kernel_size=(1, 1), stride=(1, 1), bias=False)
                (3): BatchNorm2d(64, eps=1e-05, momentum=0.1, affine=False, track_running_stats=True)
                (4): ReLU()
                (5): Conv2d(64, 64, kernel_size=(5, 5), stride=(1, 1), padding=(2, 2), groups=64, bias=False)
                (6): Conv2d(64, 64, kernel_size=(1, 1), stride=(1, 1), bias=False)
                (7): BatchNorm2d(64, eps=1e-05, momentum=0.1, affine=False, track_running_stats=True)
              )
            )
          )
        )
        (8): MixedOp(
          (_ops): ModuleList(
            (0): Sequential(
              (0): MaxPool2d(kernel_size=3, stride=1, padding=1, dilation=1, ceil_mode=False)
              (1): BatchNorm2d(64, eps=1e-05, momentum=0.1, affine=False, track_running_stats=True)
            )
            (1): Sequential(
              (0): AvgPool2d(kernel_size=3, stride=1, padding=1)
              (1): BatchNorm2d(64, eps=1e-05, momentum=0.1, affine=False, track_running_stats=True)
            )
            (2): Identity()
            (3): SepConv(
              (op): Sequential(
                (0): ReLU()
                (1): Conv2d(64, 64, kernel_size=(3, 3), stride=(1, 1), padding=(1, 1), groups=64, bias=False)
                (2): Conv2d(64, 64, kernel_size=(1, 1), stride=(1, 1), bias=False)
                (3): BatchNorm2d(64, eps=1e-05, momentum=0.1, affine=False, track_running_stats=True)
                (4): ReLU()
                (5): Conv2d(64, 64, kernel_size=(3, 3), stride=(1, 1), padding=(1, 1), groups=64, bias=False)
                (6): Conv2d(64, 64, kernel_size=(1, 1), stride=(1, 1), bias=False)
                (7): BatchNorm2d(64, eps=1e-05, momentum=0.1, affine=False, track_running_stats=True)
              )
            )
            (4): SepConv(
              (op): Sequential(
                (0): ReLU()
                (1): Conv2d(64, 64, kernel_size=(5, 5), stride=(1, 1), padding=(2, 2), groups=64, bias=False)
                (2): Conv2d(64, 64, kernel_size=(1, 1), stride=(1, 1), bias=False)
                (3): BatchNorm2d(64, eps=1e-05, momentum=0.1, affine=False, track_running_stats=True)
                (4): ReLU()
                (5): Conv2d(64, 64, kernel_size=(5, 5), stride=(1, 1), padding=(2, 2), groups=64, bias=False)
                (6): Conv2d(64, 64, kernel_size=(1, 1), stride=(1, 1), bias=False)
                (7): BatchNorm2d(64, eps=1e-05, momentum=0.1, affine=False, track_running_stats=True)
              )
            )
          )
        )
        (9): MixedOp(
          (_ops): ModuleList(
            (0): Sequential(
              (0): MaxPool2d(kernel_size=3, stride=1, padding=1, dilation=1, ceil_mode=False)
              (1): BatchNorm2d(64, eps=1e-05, momentum=0.1, affine=False, track_running_stats=True)
            )
            (1): Sequential(
              (0): AvgPool2d(kernel_size=3, stride=1, padding=1)
              (1): BatchNorm2d(64, eps=1e-05, momentum=0.1, affine=False, track_running_stats=True)
            )
            (2): Identity()
            (3): SepConv(
              (op): Sequential(
                (0): ReLU()
                (1): Conv2d(64, 64, kernel_size=(3, 3), stride=(1, 1), padding=(1, 1), groups=64, bias=False)
                (2): Conv2d(64, 64, kernel_size=(1, 1), stride=(1, 1), bias=False)
                (3): BatchNorm2d(64, eps=1e-05, momentum=0.1, affine=False, track_running_stats=True)
                (4): ReLU()
                (5): Conv2d(64, 64, kernel_size=(3, 3), stride=(1, 1), padding=(1, 1), groups=64, bias=False)
                (6): Conv2d(64, 64, kernel_size=(1, 1), stride=(1, 1), bias=False)
                (7): BatchNorm2d(64, eps=1e-05, momentum=0.1, affine=False, track_running_stats=True)
              )
            )
            (4): SepConv(
              (op): Sequential(
                (0): ReLU()
                (1): Conv2d(64, 64, kernel_size=(5, 5), stride=(1, 1), padding=(2, 2), groups=64, bias=False)
                (2): Conv2d(64, 64, kernel_size=(1, 1), stride=(1, 1), bias=False)
                (3): BatchNorm2d(64, eps=1e-05, momentum=0.1, affine=False, track_running_stats=True)
                (4): ReLU()
                (5): Conv2d(64, 64, kernel_size=(5, 5), stride=(1, 1), padding=(2, 2), groups=64, bias=False)
                (6): Conv2d(64, 64, kernel_size=(1, 1), stride=(1, 1), bias=False)
                (7): BatchNorm2d(64, eps=1e-05, momentum=0.1, affine=False, track_running_stats=True)
              )
            )
          )
        )
        (10): MixedOp(
          (_ops): ModuleList(
            (0): Sequential(
              (0): MaxPool2d(kernel_size=3, stride=1, padding=1, dilation=1, ceil_mode=False)
              (1): BatchNorm2d(64, eps=1e-05, momentum=0.1, affine=False, track_running_stats=True)
            )
            (1): Sequential(
              (0): AvgPool2d(kernel_size=3, stride=1, padding=1)
              (1): BatchNorm2d(64, eps=1e-05, momentum=0.1, affine=False, track_running_stats=True)
            )
            (2): Identity()
            (3): SepConv(
              (op): Sequential(
                (0): ReLU()
                (1): Conv2d(64, 64, kernel_size=(3, 3), stride=(1, 1), padding=(1, 1), groups=64, bias=False)
                (2): Conv2d(64, 64, kernel_size=(1, 1), stride=(1, 1), bias=False)
                (3): BatchNorm2d(64, eps=1e-05, momentum=0.1, affine=False, track_running_stats=True)
                (4): ReLU()
                (5): Conv2d(64, 64, kernel_size=(3, 3), stride=(1, 1), padding=(1, 1), groups=64, bias=False)
                (6): Conv2d(64, 64, kernel_size=(1, 1), stride=(1, 1), bias=False)
                (7): BatchNorm2d(64, eps=1e-05, momentum=0.1, affine=False, track_running_stats=True)
              )
            )
            (4): SepConv(
              (op): Sequential(
                (0): ReLU()
                (1): Conv2d(64, 64, kernel_size=(5, 5), stride=(1, 1), padding=(2, 2), groups=64, bias=False)
                (2): Conv2d(64, 64, kernel_size=(1, 1), stride=(1, 1), bias=False)
                (3): BatchNorm2d(64, eps=1e-05, momentum=0.1, affine=False, track_running_stats=True)
                (4): ReLU()
                (5): Conv2d(64, 64, kernel_size=(5, 5), stride=(1, 1), padding=(2, 2), groups=64, bias=False)
                (6): Conv2d(64, 64, kernel_size=(1, 1), stride=(1, 1), bias=False)
                (7): BatchNorm2d(64, eps=1e-05, momentum=0.1, affine=False, track_running_stats=True)
              )
            )
          )
        )
        (11): MixedOp(
          (_ops): ModuleList(
            (0): Sequential(
              (0): MaxPool2d(kernel_size=3, stride=1, padding=1, dilation=1, ceil_mode=False)
              (1): BatchNorm2d(64, eps=1e-05, momentum=0.1, affine=False, track_running_stats=True)
            )
            (1): Sequential(
              (0): AvgPool2d(kernel_size=3, stride=1, padding=1)
              (1): BatchNorm2d(64, eps=1e-05, momentum=0.1, affine=False, track_running_stats=True)
            )
            (2): Identity()
            (3): SepConv(
              (op): Sequential(
                (0): ReLU()
                (1): Conv2d(64, 64, kernel_size=(3, 3), stride=(1, 1), padding=(1, 1), groups=64, bias=False)
                (2): Conv2d(64, 64, kernel_size=(1, 1), stride=(1, 1), bias=False)
                (3): BatchNorm2d(64, eps=1e-05, momentum=0.1, affine=False, track_running_stats=True)
                (4): ReLU()
                (5): Conv2d(64, 64, kernel_size=(3, 3), stride=(1, 1), padding=(1, 1), groups=64, bias=False)
                (6): Conv2d(64, 64, kernel_size=(1, 1), stride=(1, 1), bias=False)
                (7): BatchNorm2d(64, eps=1e-05, momentum=0.1, affine=False, track_running_stats=True)
              )
            )
            (4): SepConv(
              (op): Sequential(
                (0): ReLU()
                (1): Conv2d(64, 64, kernel_size=(5, 5), stride=(1, 1), padding=(2, 2), groups=64, bias=False)
                (2): Conv2d(64, 64, kernel_size=(1, 1), stride=(1, 1), bias=False)
                (3): BatchNorm2d(64, eps=1e-05, momentum=0.1, affine=False, track_running_stats=True)
                (4): ReLU()
                (5): Conv2d(64, 64, kernel_size=(5, 5), stride=(1, 1), padding=(2, 2), groups=64, bias=False)
                (6): Conv2d(64, 64, kernel_size=(1, 1), stride=(1, 1), bias=False)
                (7): BatchNorm2d(64, eps=1e-05, momentum=0.1, affine=False, track_running_stats=True)
              )
            )
          )
        )
        (12): MixedOp(
          (_ops): ModuleList(
            (0): Sequential(
              (0): MaxPool2d(kernel_size=3, stride=1, padding=1, dilation=1, ceil_mode=False)
              (1): BatchNorm2d(64, eps=1e-05, momentum=0.1, affine=False, track_running_stats=True)
            )
            (1): Sequential(
              (0): AvgPool2d(kernel_size=3, stride=1, padding=1)
              (1): BatchNorm2d(64, eps=1e-05, momentum=0.1, affine=False, track_running_stats=True)
            )
            (2): Identity()
            (3): SepConv(
              (op): Sequential(
                (0): ReLU()
                (1): Conv2d(64, 64, kernel_size=(3, 3), stride=(1, 1), padding=(1, 1), groups=64, bias=False)
                (2): Conv2d(64, 64, kernel_size=(1, 1), stride=(1, 1), bias=False)
                (3): BatchNorm2d(64, eps=1e-05, momentum=0.1, affine=False, track_running_stats=True)
                (4): ReLU()
                (5): Conv2d(64, 64, kernel_size=(3, 3), stride=(1, 1), padding=(1, 1), groups=64, bias=False)
                (6): Conv2d(64, 64, kernel_size=(1, 1), stride=(1, 1), bias=False)
                (7): BatchNorm2d(64, eps=1e-05, momentum=0.1, affine=False, track_running_stats=True)
              )
            )
            (4): SepConv(
              (op): Sequential(
                (0): ReLU()
                (1): Conv2d(64, 64, kernel_size=(5, 5), stride=(1, 1), padding=(2, 2), groups=64, bias=False)
                (2): Conv2d(64, 64, kernel_size=(1, 1), stride=(1, 1), bias=False)
                (3): BatchNorm2d(64, eps=1e-05, momentum=0.1, affine=False, track_running_stats=True)
                (4): ReLU()
                (5): Conv2d(64, 64, kernel_size=(5, 5), stride=(1, 1), padding=(2, 2), groups=64, bias=False)
                (6): Conv2d(64, 64, kernel_size=(1, 1), stride=(1, 1), bias=False)
                (7): BatchNorm2d(64, eps=1e-05, momentum=0.1, affine=False, track_running_stats=True)
              )
            )
          )
        )
        (13): MixedOp(
          (_ops): ModuleList(
            (0): Sequential(
              (0): MaxPool2d(kernel_size=3, stride=1, padding=1, dilation=1, ceil_mode=False)
              (1): BatchNorm2d(64, eps=1e-05, momentum=0.1, affine=False, track_running_stats=True)
            )
            (1): Sequential(
              (0): AvgPool2d(kernel_size=3, stride=1, padding=1)
              (1): BatchNorm2d(64, eps=1e-05, momentum=0.1, affine=False, track_running_stats=True)
            )
            (2): Identity()
            (3): SepConv(
              (op): Sequential(
                (0): ReLU()
                (1): Conv2d(64, 64, kernel_size=(3, 3), stride=(1, 1), padding=(1, 1), groups=64, bias=False)
                (2): Conv2d(64, 64, kernel_size=(1, 1), stride=(1, 1), bias=False)
                (3): BatchNorm2d(64, eps=1e-05, momentum=0.1, affine=False, track_running_stats=True)
                (4): ReLU()
                (5): Conv2d(64, 64, kernel_size=(3, 3), stride=(1, 1), padding=(1, 1), groups=64, bias=False)
                (6): Conv2d(64, 64, kernel_size=(1, 1), stride=(1, 1), bias=False)
                (7): BatchNorm2d(64, eps=1e-05, momentum=0.1, affine=False, track_running_stats=True)
              )
            )
            (4): SepConv(
              (op): Sequential(
                (0): ReLU()
                (1): Conv2d(64, 64, kernel_size=(5, 5), stride=(1, 1), padding=(2, 2), groups=64, bias=False)
                (2): Conv2d(64, 64, kernel_size=(1, 1), stride=(1, 1), bias=False)
                (3): BatchNorm2d(64, eps=1e-05, momentum=0.1, affine=False, track_running_stats=True)
                (4): ReLU()
                (5): Conv2d(64, 64, kernel_size=(5, 5), stride=(1, 1), padding=(2, 2), groups=64, bias=False)
                (6): Conv2d(64, 64, kernel_size=(1, 1), stride=(1, 1), bias=False)
                (7): BatchNorm2d(64, eps=1e-05, momentum=0.1, affine=False, track_running_stats=True)
              )
            )
          )
        )
      )
      (_bns): ModuleList()
    )
  )
  (global_pooling): AdaptiveAvgPool2d(output_size=1)
  (classifier): Linear(in_features=256, out_features=10, bias=True)
)>
-------------------------------------------------
tensor([[… device='cuda:0', requires_grad=True)
-------------------------------------------------
tensor([[ … device='cuda:0', requires_grad=True)
